…
s has been counted\n            <class 'paddle.nn.layer.activation.ReLU'>'s flops has been counted\n            Cannot find suitable count function for <class 'paddle.nn.layer.pooling.MaxPool2D'>. Treat it as zero FLOPs.\n            <class 'paddle.nn.layer.common.Linear'>'s flops has been counted\n            +--------------+-----------------+-----------------+--------+--------+\n            |  Layer Name  |   Input Shape   |   Output Shape  | Params | Flops  |\n            +--------------+-----------------+-----------------+--------+--------+\n            |   conv2d_0   |  [1, 1, 28, 28] |  [1, 6, 28, 28] |   60   | 47040  |\n            |   re_lu_0    |  [1, 6, 28, 28] |  [1, 6, 28, 28] |   0    |   0    |\n            | max_pool2d_0 |  [1, 6, 28, 28] |  [1, 6, 14, 14] |   0    |   0    |\n            |   conv2d_1   |  [1, 6, 14, 14] | [1, 16, 10, 10] |  2416  | 241600 |\n            |   re_lu_1    | [1, 16, 10, 10] | [1, 16, 10, 10] |   0    |   0    |\n            | max_pool2d_1 | [1, 16, 10, 10] |  [1, 16, 5, 5]  |   0    |   0    |\n            |   linear_0   |     [1, 400]    |     [1, 120]    | 48120  | 48000  |\n            |   linear_1   |     [1, 120]    |     [1, 84]     | 10164  | 10080  |\n            |   linear_2   |     [1, 84]     |     [1, 10]     |  850   |  840   |\n            +--------------+-----------------+-----------------+--------+--------+\n            Total Flops: 347560     Total Params: 61610\n            347560\n    \"\"\"\n    if isinstance(net, nn.Layer):\n        (_, net.forward) = unwrap_decorators(net.forward)\n        inputs = paddle.randn(input_size)\n        return dynamic_flops(net, inputs=inputs, custom_ops=custom_ops, print_detail=print_detail)\n    elif isinstance(net, paddle.static.Program):\n        return static_flops(net, print_detail=print_detail)\n    else:\n        warnings.warn('Your model must be an instance of paddle.nn.Layer or paddle.static.Program.')\n        return -1",
…
