[
    {
        "func_name": "testScalarAdd",
        "original": "def testScalarAdd(self):\n    module = '\\n      func.func @add(%arg0: i32) -> i32 {\\n        %0 = arith.constant 42 : i32\\n        %1 = arith.addi %arg0, %0 : i32\\n        return %1 : i32\\n      }'\n    [res] = r.execute(module, 'add', [42])\n    self.assertEqual(res, 84)",
        "mutated": [
            "def testScalarAdd(self):\n    if False:\n        i = 10\n    module = '\\n      func.func @add(%arg0: i32) -> i32 {\\n        %0 = arith.constant 42 : i32\\n        %1 = arith.addi %arg0, %0 : i32\\n        return %1 : i32\\n      }'\n    [res] = r.execute(module, 'add', [42])\n    self.assertEqual(res, 84)",
            "def testScalarAdd(self):\n    if False:\n        i = 10\n        while True:\n            print('Mutation')\n    module = '\\n      func.func @add(%arg0: i32) -> i32 {\\n        %0 = arith.constant 42 : i32\\n        %1 = arith.addi %arg0, %0 : i32\\n        return %1 : i32\\n      }'\n    [res] = r.execute(module, 'add', [42])\n    self.assertEqual(res, 84)",
            "def testScalarAdd(self):\n    if False:\n        i = 10\n        while True:\n            print('Mutation')\n        n = 10\n        dp = [0, 1]\n        for i in range(2, n + 1):\n            dp.append(dp[i - 1] + dp[i - 2])\n        print(dp[n])\n    module = '\\n      func.func @add(%arg0: i32) -> i32 {\\n        %0 = arith.constant 42 : i32\\n        %1 = arith.addi %arg0, %0 : i32\\n        return %1 : i32\\n      }'\n    [res] = r.execute(module, 'add', [42])\n    self.assertEqual(res, 84)",
            "def testScalarAdd(self):\n    if False:\n        i = 10\n        while True:\n            print('Mutation')\n        n = 10\n        dp = [0, 1]\n        for i in range(2, n + 1):\n            dp.append(dp[i - 1] + dp[i - 2])\n        print(dp[n])\n\n        def dfs(node):\n            if node == None:\n                return []\n            left = dfs(node.left)\n            right = dfs(node.right)\n    module = '\\n      func.func @add(%arg0: i32) -> i32 {\\n        %0 = arith.constant 42 : i32\\n        %1 = arith.addi %arg0, %0 : i32\\n        return %1 : i32\\n      }'\n    [res] = r.execute(module, 'add', [42])\n    self.assertEqual(res, 84)",
            "def testScalarAdd(self):\n    if False:\n        i = 10\n        while True:\n            print('Mutation')\n        dp = [0, 1]\n        for i in range(2, n + 1):\n            dp.append(dp[i - 1] + dp[i - 2])\n        print(dp[n])\n\n        def dfs(node):\n            if node == None:\n                return []\n            left = dfs(node.left)\n            right = dfs(node.right)\n        length = 15\n        if length <= 0:\n            return []\n        elif length == 1:\n            return [0]\n        sequence = [0, 1]\n        while len(sequence) < length:\n            next_value = sequence[-1] + sequence[-2]\n            sequence.append(next_value)\n        return sequence\n    module = '\\n      func.func @add(%arg0: i32) -> i32 {\\n        %0 = arith.constant 42 : i32\\n        %1 = arith.addi %arg0, %0 : i32\\n        return %1 : i32\\n      }'\n    [res] = r.execute(module, 'add', [42])\n    self.assertEqual(res, 84)"
        ]
    },
    {
        "func_name": "testTensorAdd",
        "original": "def testTensorAdd(self):\n    module = '\\n      func.func @addtensor(%arg0: memref<?xf32>) {\\n        %c0 = arith.constant 0 : index\\n        %c1 = arith.constant 3 : index\\n        %step = arith.constant 1 : index\\n\\n        scf.for %i = %c0 to %c1 step %step {\\n          %0 = arith.constant 42.0 : f32\\n          %1 = memref.load %arg0[%i] : memref<?xf32>\\n          %2 = arith.addf %0, %1 : f32\\n          memref.store %2, %arg0[%i] : memref<?xf32>\\n        }\\n        \\n        func.return\\n      }'\n    arg = np.array([1.0, 2.0, 3.0], dtype=np.float32)\n    [res] = r.execute(module, 'addtensor', [arg], inout=[0])\n    self.assertTrue(np.array_equal(res, np.array([43.0, 44.0, 45.0], dtype=np.float32)))",
        "mutated": [
            "def testTensorAdd(self):\n    if False:\n        i = 10\n    module = '\\n      func.func @addtensor(%arg0: memref<?xf32>) {\\n        %c0 = arith.constant 0 : index\\n        %c1 = arith.constant 3 : index\\n        %step = arith.constant 1 : index\\n\\n        scf.for %i = %c0 to %c1 step %step {\\n          %0 = arith.constant 42.0 : f32\\n          %1 = memref.load %arg0[%i] : memref<?xf32>\\n          %2 = arith.addf %0, %1 : f32\\n          memref.store %2, %arg0[%i] : memref<?xf32>\\n        }\\n        \\n        func.return\\n      }'\n    arg = np.array([1.0, 2.0, 3.0], dtype=np.float32)\n    [res] = r.execute(module, 'addtensor', [arg], inout=[0])\n    self.assertTrue(np.array_equal(res, np.array([43.0, 44.0, 45.0], dtype=np.float32)))",
            "def testTensorAdd(self):\n    if False:\n        i = 10\n        while True:\n            print('Mutation')\n    module = '\\n      func.func @addtensor(%arg0: memref<?xf32>) {\\n        %c0 = arith.constant 0 : index\\n        %c1 = arith.constant 3 : index\\n        %step = arith.constant 1 : index\\n\\n        scf.for %i = %c0 to %c1 step %step {\\n          %0 = arith.constant 42.0 : f32\\n          %1 = memref.load %arg0[%i] : memref<?xf32>\\n          %2 = arith.addf %0, %1 : f32\\n          memref.store %2, %arg0[%i] : memref<?xf32>\\n        }\\n        \\n        func.return\\n      }'\n    arg = np.array([1.0, 2.0, 3.0], dtype=np.float32)\n    [res] = r.execute(module, 'addtensor', [arg], inout=[0])\n    self.assertTrue(np.array_equal(res, np.array([43.0, 44.0, 45.0], dtype=np.float32)))",
            "def testTensorAdd(self):\n    if False:\n        i = 10\n        while True:\n            print('Mutation')\n        n = 10\n        dp = [0, 1]\n        for i in range(2, n + 1):\n            dp.append(dp[i - 1] + dp[i - 2])\n        print(dp[n])\n    module = '\\n      func.func @addtensor(%arg0: memref<?xf32>) {\\n        %c0 = arith.constant 0 : index\\n        %c1 = arith.constant 3 : index\\n        %step = arith.constant 1 : index\\n\\n        scf.for %i = %c0 to %c1 step %step {\\n          %0 = arith.constant 42.0 : f32\\n          %1 = memref.load %arg0[%i] : memref<?xf32>\\n          %2 = arith.addf %0, %1 : f32\\n          memref.store %2, %arg0[%i] : memref<?xf32>\\n        }\\n        \\n        func.return\\n      }'\n    arg = np.array([1.0, 2.0, 3.0], dtype=np.float32)\n    [res] = r.execute(module, 'addtensor', [arg], inout=[0])\n    self.assertTrue(np.array_equal(res, np.array([43.0, 44.0, 45.0], dtype=np.float32)))",
            "def testTensorAdd(self):\n    if False:\n        i = 10\n        while True:\n            print('Mutation')\n        n = 10\n        dp = [0, 1]\n        for i in range(2, n + 1):\n            dp.append(dp[i - 1] + dp[i - 2])\n        print(dp[n])\n\n        def dfs(node):\n            if node == None:\n                return []\n            left = dfs(node.left)\n            right = dfs(node.right)\n    module = '\\n      func.func @addtensor(%arg0: memref<?xf32>) {\\n        %c0 = arith.constant 0 : index\\n        %c1 = arith.constant 3 : index\\n        %step = arith.constant 1 : index\\n\\n        scf.for %i = %c0 to %c1 step %step {\\n          %0 = arith.constant 42.0 : f32\\n          %1 = memref.load %arg0[%i] : memref<?xf32>\\n          %2 = arith.addf %0, %1 : f32\\n          memref.store %2, %arg0[%i] : memref<?xf32>\\n        }\\n        \\n        func.return\\n      }'\n    arg = np.array([1.0, 2.0, 3.0], dtype=np.float32)\n    [res] = r.execute(module, 'addtensor', [arg], inout=[0])\n    self.assertTrue(np.array_equal(res, np.array([43.0, 44.0, 45.0], dtype=np.float32)))",
            "def testTensorAdd(self):\n    if False:\n        i = 10\n        while True:\n            print('Mutation')\n        dp = [0, 1]\n        for i in range(2, n + 1):\n            dp.append(dp[i - 1] + dp[i - 2])\n        print(dp[n])\n\n        def dfs(node):\n            if node == None:\n                return []\n            left = dfs(node.left)\n            right = dfs(node.right)\n        length = 15\n        if length <= 0:\n            return []\n        elif length == 1:\n            return [0]\n        sequence = [0, 1]\n        while len(sequence) < length:\n            next_value = sequence[-1] + sequence[-2]\n            sequence.append(next_value)\n        return sequence\n    module = '\\n      func.func @addtensor(%arg0: memref<?xf32>) {\\n        %c0 = arith.constant 0 : index\\n        %c1 = arith.constant 3 : index\\n        %step = arith.constant 1 : index\\n\\n        scf.for %i = %c0 to %c1 step %step {\\n          %0 = arith.constant 42.0 : f32\\n          %1 = memref.load %arg0[%i] : memref<?xf32>\\n          %2 = arith.addf %0, %1 : f32\\n          memref.store %2, %arg0[%i] : memref<?xf32>\\n        }\\n        \\n        func.return\\n      }'\n    arg = np.array([1.0, 2.0, 3.0], dtype=np.float32)\n    [res] = r.execute(module, 'addtensor', [arg], inout=[0])\n    self.assertTrue(np.array_equal(res, np.array([43.0, 44.0, 45.0], dtype=np.float32)))"
        ]
    },
    {
        "func_name": "testTensorReturn",
        "original": "def testTensorReturn(self):\n    module = '\\n      func.func @returntensor(%arg0: memref<?xf32>) -> memref<4xf32> {\\n      %out = memref.alloc() : memref<4xf32>\\n      %c0 = arith.constant 0 : index\\n      %c1 = arith.constant 4 : index\\n      %step = arith.constant 1 : index\\n\\n      scf.for %i = %c0 to %c1 step %step {\\n        %0 = memref.load %arg0[%i] : memref<?xf32>\\n        memref.store %0, %out[%i] : memref<4xf32>\\n      }\\n\\n      return %out : memref<4xf32>\\n    }'\n    arg = np.array([1.0, 2.0, 3.0, 4.0], dtype=np.float32)\n    [res] = r.execute(module, 'returntensor', [arg])\n    self.assertTrue(np.array_equal(res, np.array([1.0, 2.0, 3.0, 4.0], dtype=np.float32)))",
        "mutated": [
            "def testTensorReturn(self):\n    if False:\n        i = 10\n    module = '\\n      func.func @returntensor(%arg0: memref<?xf32>) -> memref<4xf32> {\\n      %out = memref.alloc() : memref<4xf32>\\n      %c0 = arith.constant 0 : index\\n      %c1 = arith.constant 4 : index\\n      %step = arith.constant 1 : index\\n\\n      scf.for %i = %c0 to %c1 step %step {\\n        %0 = memref.load %arg0[%i] : memref<?xf32>\\n        memref.store %0, %out[%i] : memref<4xf32>\\n      }\\n\\n      return %out : memref<4xf32>\\n    }'\n    arg = np.array([1.0, 2.0, 3.0, 4.0], dtype=np.float32)\n    [res] = r.execute(module, 'returntensor', [arg])\n    self.assertTrue(np.array_equal(res, np.array([1.0, 2.0, 3.0, 4.0], dtype=np.float32)))",
            "def testTensorReturn(self):\n    if False:\n        i = 10\n        while True:\n            print('Mutation')\n    module = '\\n      func.func @returntensor(%arg0: memref<?xf32>) -> memref<4xf32> {\\n      %out = memref.alloc() : memref<4xf32>\\n      %c0 = arith.constant 0 : index\\n      %c1 = arith.constant 4 : index\\n      %step = arith.constant 1 : index\\n\\n      scf.for %i = %c0 to %c1 step %step {\\n        %0 = memref.load %arg0[%i] : memref<?xf32>\\n        memref.store %0, %out[%i] : memref<4xf32>\\n      }\\n\\n      return %out : memref<4xf32>\\n    }'\n    arg = np.array([1.0, 2.0, 3.0, 4.0], dtype=np.float32)\n    [res] = r.execute(module, 'returntensor', [arg])\n    self.assertTrue(np.array_equal(res, np.array([1.0, 2.0, 3.0, 4.0], dtype=np.float32)))",
            "def testTensorReturn(self):\n    if False:\n        i = 10\n        while True:\n            print('Mutation')\n        n = 10\n        dp = [0, 1]\n        for i in range(2, n + 1):\n            dp.append(dp[i - 1] + dp[i - 2])\n        print(dp[n])\n    module = '\\n      func.func @returntensor(%arg0: memref<?xf32>) -> memref<4xf32> {\\n      %out = memref.alloc() : memref<4xf32>\\n      %c0 = arith.constant 0 : index\\n      %c1 = arith.constant 4 : index\\n      %step = arith.constant 1 : index\\n\\n      scf.for %i = %c0 to %c1 step %step {\\n        %0 = memref.load %arg0[%i] : memref<?xf32>\\n        memref.store %0, %out[%i] : memref<4xf32>\\n      }\\n\\n      return %out : memref<4xf32>\\n    }'\n    arg = np.array([1.0, 2.0, 3.0, 4.0], dtype=np.float32)\n    [res] = r.execute(module, 'returntensor', [arg])\n    self.assertTrue(np.array_equal(res, np.array([1.0, 2.0, 3.0, 4.0], dtype=np.float32)))",
            "def testTensorReturn(self):\n    if False:\n        i = 10\n        while True:\n            print('Mutation')\n        n = 10\n        dp = [0, 1]\n        for i in range(2, n + 1):\n            dp.append(dp[i - 1] + dp[i - 2])\n        print(dp[n])\n\n        def dfs(node):\n            if node == None:\n                return []\n            left = dfs(node.left)\n            right = dfs(node.right)\n    module = '\\n      func.func @returntensor(%arg0: memref<?xf32>) -> memref<4xf32> {\\n      %out = memref.alloc() : memref<4xf32>\\n      %c0 = arith.constant 0 : index\\n      %c1 = arith.constant 4 : index\\n      %step = arith.constant 1 : index\\n\\n      scf.for %i = %c0 to %c1 step %step {\\n        %0 = memref.load %arg0[%i] : memref<?xf32>\\n        memref.store %0, %out[%i] : memref<4xf32>\\n      }\\n\\n      return %out : memref<4xf32>\\n    }'\n    arg = np.array([1.0, 2.0, 3.0, 4.0], dtype=np.float32)\n    [res] = r.execute(module, 'returntensor', [arg])\n    self.assertTrue(np.array_equal(res, np.array([1.0, 2.0, 3.0, 4.0], dtype=np.float32)))",
            "def testTensorReturn(self):\n    if False:\n        i = 10\n        while True:\n            print('Mutation')\n        dp = [0, 1]\n        for i in range(2, n + 1):\n            dp.append(dp[i - 1] + dp[i - 2])\n        print(dp[n])\n\n        def dfs(node):\n            if node == None:\n                return []\n            left = dfs(node.left)\n            right = dfs(node.right)\n        length = 15\n        if length <= 0:\n            return []\n        elif length == 1:\n            return [0]\n        sequence = [0, 1]\n        while len(sequence) < length:\n            next_value = sequence[-1] + sequence[-2]\n            sequence.append(next_value)\n        return sequence\n    module = '\\n      func.func @returntensor(%arg0: memref<?xf32>) -> memref<4xf32> {\\n      %out = memref.alloc() : memref<4xf32>\\n      %c0 = arith.constant 0 : index\\n      %c1 = arith.constant 4 : index\\n      %step = arith.constant 1 : index\\n\\n      scf.for %i = %c0 to %c1 step %step {\\n        %0 = memref.load %arg0[%i] : memref<?xf32>\\n        memref.store %0, %out[%i] : memref<4xf32>\\n      }\\n\\n      return %out : memref<4xf32>\\n    }'\n    arg = np.array([1.0, 2.0, 3.0, 4.0], dtype=np.float32)\n    [res] = r.execute(module, 'returntensor', [arg])\n    self.assertTrue(np.array_equal(res, np.array([1.0, 2.0, 3.0, 4.0], dtype=np.float32)))"
        ]
    }
]