[
    {
        "func_name": "serialize",
        "original": "def serialize(module_str: str) -> tuple[str, int]:\n    target = stablehlo.get_minimum_version()\n    byte_str = stablehlo.serialize_portable_artifact(module_str, target)\n    return (byte_str, xla.call_module_maximum_supported_version())",
        "mutated": [
            "def serialize(module_str: str) -> tuple[str, int]:\n    if False:\n        i = 10\n    target = stablehlo.get_minimum_version()\n    byte_str = stablehlo.serialize_portable_artifact(module_str, target)\n    return (byte_str, xla.call_module_maximum_supported_version())",
            "def serialize(module_str: str) -> tuple[str, int]:\n    if False:\n        i = 10\n        while True:\n            print('Mutation')\n    target = stablehlo.get_minimum_version()\n    byte_str = stablehlo.serialize_portable_artifact(module_str, target)\n    return (byte_str, xla.call_module_maximum_supported_version())",
            "def serialize(module_str: str) -> tuple[str, int]:\n    if False:\n        i = 10\n        while True:\n            print('Mutation')\n        n = 10\n        dp = [0, 1]\n        for i in range(2, n + 1):\n            dp.append(dp[i - 1] + dp[i - 2])\n        print(dp[n])\n    target = stablehlo.get_minimum_version()\n    byte_str = stablehlo.serialize_portable_artifact(module_str, target)\n    return (byte_str, xla.call_module_maximum_supported_version())",
            "def serialize(module_str: str) -> tuple[str, int]:\n    if False:\n        i = 10\n        while True:\n            print('Mutation')\n        n = 10\n        dp = [0, 1]\n        for i in range(2, n + 1):\n            dp.append(dp[i - 1] + dp[i - 2])\n        print(dp[n])\n\n        def dfs(node):\n            if node == None:\n                return []\n            left = dfs(node.left)\n            right = dfs(node.right)\n    target = stablehlo.get_minimum_version()\n    byte_str = stablehlo.serialize_portable_artifact(module_str, target)\n    return (byte_str, xla.call_module_maximum_supported_version())",
            "def serialize(module_str: str) -> tuple[str, int]:\n    if False:\n        i = 10\n        while True:\n            print('Mutation')\n        dp = [0, 1]\n        for i in range(2, n + 1):\n            dp.append(dp[i - 1] + dp[i - 2])\n        print(dp[n])\n\n        def dfs(node):\n            if node == None:\n                return []\n            left = dfs(node.left)\n            right = dfs(node.right)\n        length = 15\n        if length <= 0:\n            return []\n        elif length == 1:\n            return [0]\n        sequence = [0, 1]\n        while len(sequence) < length:\n            next_value = sequence[-1] + sequence[-2]\n            sequence.append(next_value)\n        return sequence\n    target = stablehlo.get_minimum_version()\n    byte_str = stablehlo.serialize_portable_artifact(module_str, target)\n    return (byte_str, xla.call_module_maximum_supported_version())"
        ]
    },
    {
        "func_name": "_assertOpOutputMatchesExpected",
        "original": "def _assertOpOutputMatchesExpected(self, op, args, expected, equality_fn=None):\n    \"\"\"Asserts op(*args) == expected.\"\"\"\n    with self.test_scope():\n        tf_func = def_function.function(op, autograph=False, jit_compile=True)\n        result = tf_func(*args)\n        if not equality_fn:\n            equality_fn = self.assertAllClose\n        equality_fn(result, expected, rtol=0.001)",
        "mutated": [
            "def _assertOpOutputMatchesExpected(self, op, args, expected, equality_fn=None):\n    if False:\n        i = 10\n    'Asserts op(*args) == expected.'\n    with self.test_scope():\n        tf_func = def_function.function(op, autograph=False, jit_compile=True)\n        result = tf_func(*args)\n        if not equality_fn:\n            equality_fn = self.assertAllClose\n        equality_fn(result, expected, rtol=0.001)",
            "def _assertOpOutputMatchesExpected(self, op, args, expected, equality_fn=None):\n    if False:\n        i = 10\n        while True:\n            print('Mutation')\n    'Asserts op(*args) == expected.'\n    with self.test_scope():\n        tf_func = def_function.function(op, autograph=False, jit_compile=True)\n        result = tf_func(*args)\n        if not equality_fn:\n            equality_fn = self.assertAllClose\n        equality_fn(result, expected, rtol=0.001)",
            "def _assertOpOutputMatchesExpected(self, op, args, expected, equality_fn=None):\n    if False:\n        i = 10\n        while True:\n            print('Mutation')\n        n = 10\n        dp = [0, 1]\n        for i in range(2, n + 1):\n            dp.append(dp[i - 1] + dp[i - 2])\n        print(dp[n])\n    'Asserts op(*args) == expected.'\n    with self.test_scope():\n        tf_func = def_function.function(op, autograph=False, jit_compile=True)\n        result = tf_func(*args)\n        if not equality_fn:\n            equality_fn = self.assertAllClose\n        equality_fn(result, expected, rtol=0.001)",
            "def _assertOpOutputMatchesExpected(self, op, args, expected, equality_fn=None):\n    if False:\n        i = 10\n        while True:\n            print('Mutation')\n        n = 10\n        dp = [0, 1]\n        for i in range(2, n + 1):\n            dp.append(dp[i - 1] + dp[i - 2])\n        print(dp[n])\n\n        def dfs(node):\n            if node == None:\n                return []\n            left = dfs(node.left)\n            right = dfs(node.right)\n    'Asserts op(*args) == expected.'\n    with self.test_scope():\n        tf_func = def_function.function(op, autograph=False, jit_compile=True)\n        result = tf_func(*args)\n        if not equality_fn:\n            equality_fn = self.assertAllClose\n        equality_fn(result, expected, rtol=0.001)",
            "def _assertOpOutputMatchesExpected(self, op, args, expected, equality_fn=None):\n    if False:\n        i = 10\n        while True:\n            print('Mutation')\n        dp = [0, 1]\n        for i in range(2, n + 1):\n            dp.append(dp[i - 1] + dp[i - 2])\n        print(dp[n])\n\n        def dfs(node):\n            if node == None:\n                return []\n            left = dfs(node.left)\n            right = dfs(node.right)\n        length = 15\n        if length <= 0:\n            return []\n        elif length == 1:\n            return [0]\n        sequence = [0, 1]\n        while len(sequence) < length:\n            next_value = sequence[-1] + sequence[-2]\n            sequence.append(next_value)\n        return sequence\n    'Asserts op(*args) == expected.'\n    with self.test_scope():\n        tf_func = def_function.function(op, autograph=False, jit_compile=True)\n        result = tf_func(*args)\n        if not equality_fn:\n            equality_fn = self.assertAllClose\n        equality_fn(result, expected, rtol=0.001)"
        ]
    },
    {
        "func_name": "testing_platform",
        "original": "def testing_platform(self):\n    \"\"\"Current testing platform, one of CPU, GPU, TPU.\"\"\"\n    if self.device in ['CPU', 'XLA_CPU']:\n        return 'CPU'\n    elif self.device in ['GPU', 'XLA_GPU']:\n        if test.is_built_with_rocm():\n            return 'ROCM'\n        else:\n            return 'CUDA'\n    elif self.device in ['TPU', 'XLA_TPU']:\n        return 'TPU'\n    else:\n        assert False, f'Unexpected self.device={self.device!r}'",
        "mutated": [
            "def testing_platform(self):\n    if False:\n        i = 10\n    'Current testing platform, one of CPU, GPU, TPU.'\n    if self.device in ['CPU', 'XLA_CPU']:\n        return 'CPU'\n    elif self.device in ['GPU', 'XLA_GPU']:\n        if test.is_built_with_rocm():\n            return 'ROCM'\n        else:\n            return 'CUDA'\n    elif self.device in ['TPU', 'XLA_TPU']:\n        return 'TPU'\n    else:\n        assert False, f'Unexpected self.device={self.device!r}'",
            "def testing_platform(self):\n    if False:\n        i = 10\n        while True:\n            print('Mutation')\n    'Current testing platform, one of CPU, GPU, TPU.'\n    if self.device in ['CPU', 'XLA_CPU']:\n        return 'CPU'\n    elif self.device in ['GPU', 'XLA_GPU']:\n        if test.is_built_with_rocm():\n            return 'ROCM'\n        else:\n            return 'CUDA'\n    elif self.device in ['TPU', 'XLA_TPU']:\n        return 'TPU'\n    else:\n        assert False, f'Unexpected self.device={self.device!r}'",
            "def testing_platform(self):\n    if False:\n        i = 10\n        while True:\n            print('Mutation')\n        n = 10\n        dp = [0, 1]\n        for i in range(2, n + 1):\n            dp.append(dp[i - 1] + dp[i - 2])\n        print(dp[n])\n    'Current testing platform, one of CPU, GPU, TPU.'\n    if self.device in ['CPU', 'XLA_CPU']:\n        return 'CPU'\n    elif self.device in ['GPU', 'XLA_GPU']:\n        if test.is_built_with_rocm():\n            return 'ROCM'\n        else:\n            return 'CUDA'\n    elif self.device in ['TPU', 'XLA_TPU']:\n        return 'TPU'\n    else:\n        assert False, f'Unexpected self.device={self.device!r}'",
            "def testing_platform(self):\n    if False:\n        i = 10\n        while True:\n            print('Mutation')\n        n = 10\n        dp = [0, 1]\n        for i in range(2, n + 1):\n            dp.append(dp[i - 1] + dp[i - 2])\n        print(dp[n])\n\n        def dfs(node):\n            if node == None:\n                return []\n            left = dfs(node.left)\n            right = dfs(node.right)\n    'Current testing platform, one of CPU, GPU, TPU.'\n    if self.device in ['CPU', 'XLA_CPU']:\n        return 'CPU'\n    elif self.device in ['GPU', 'XLA_GPU']:\n        if test.is_built_with_rocm():\n            return 'ROCM'\n        else:\n            return 'CUDA'\n    elif self.device in ['TPU', 'XLA_TPU']:\n        return 'TPU'\n    else:\n        assert False, f'Unexpected self.device={self.device!r}'",
            "def testing_platform(self):\n    if False:\n        i = 10\n        while True:\n            print('Mutation')\n        dp = [0, 1]\n        for i in range(2, n + 1):\n            dp.append(dp[i - 1] + dp[i - 2])\n        print(dp[n])\n\n        def dfs(node):\n            if node == None:\n                return []\n            left = dfs(node.left)\n            right = dfs(node.right)\n        length = 15\n        if length <= 0:\n            return []\n        elif length == 1:\n            return [0]\n        sequence = [0, 1]\n        while len(sequence) < length:\n            next_value = sequence[-1] + sequence[-2]\n            sequence.append(next_value)\n        return sequence\n    'Current testing platform, one of CPU, GPU, TPU.'\n    if self.device in ['CPU', 'XLA_CPU']:\n        return 'CPU'\n    elif self.device in ['GPU', 'XLA_GPU']:\n        if test.is_built_with_rocm():\n            return 'ROCM'\n        else:\n            return 'CUDA'\n    elif self.device in ['TPU', 'XLA_TPU']:\n        return 'TPU'\n    else:\n        assert False, f'Unexpected self.device={self.device!r}'"
        ]
    },
    {
        "func_name": "f",
        "original": "def f(x):\n    (module, version) = serialize('\\nmodule @jit_f.0 {\\n  func.func public @main(%arg0: tensor<3xf32>) -> tensor<3xf32> {\\n    %0 = stablehlo.cosine %arg0 : tensor<3xf32>\\n    %1 = stablehlo.sine %0 : tensor<3xf32>\\n    return %1 : tensor<3xf32>\\n  }\\n}\\n')\n    return xla.call_module([x], version=version, module=module, Tout=[x.dtype], Sout=[x.shape], platforms=[self.testing_platform()])",
        "mutated": [
            "def f(x):\n    if False:\n        i = 10\n    (module, version) = serialize('\\nmodule @jit_f.0 {\\n  func.func public @main(%arg0: tensor<3xf32>) -> tensor<3xf32> {\\n    %0 = stablehlo.cosine %arg0 : tensor<3xf32>\\n    %1 = stablehlo.sine %0 : tensor<3xf32>\\n    return %1 : tensor<3xf32>\\n  }\\n}\\n')\n    return xla.call_module([x], version=version, module=module, Tout=[x.dtype], Sout=[x.shape], platforms=[self.testing_platform()])",
            "def f(x):\n    if False:\n        i = 10\n        while True:\n            print('Mutation')\n    (module, version) = serialize('\\nmodule @jit_f.0 {\\n  func.func public @main(%arg0: tensor<3xf32>) -> tensor<3xf32> {\\n    %0 = stablehlo.cosine %arg0 : tensor<3xf32>\\n    %1 = stablehlo.sine %0 : tensor<3xf32>\\n    return %1 : tensor<3xf32>\\n  }\\n}\\n')\n    return xla.call_module([x], version=version, module=module, Tout=[x.dtype], Sout=[x.shape], platforms=[self.testing_platform()])",
            "def f(x):\n    if False:\n        i = 10\n        while True:\n            print('Mutation')\n        n = 10\n        dp = [0, 1]\n        for i in range(2, n + 1):\n            dp.append(dp[i - 1] + dp[i - 2])\n        print(dp[n])\n    (module, version) = serialize('\\nmodule @jit_f.0 {\\n  func.func public @main(%arg0: tensor<3xf32>) -> tensor<3xf32> {\\n    %0 = stablehlo.cosine %arg0 : tensor<3xf32>\\n    %1 = stablehlo.sine %0 : tensor<3xf32>\\n    return %1 : tensor<3xf32>\\n  }\\n}\\n')\n    return xla.call_module([x], version=version, module=module, Tout=[x.dtype], Sout=[x.shape], platforms=[self.testing_platform()])",
            "def f(x):\n    if False:\n        i = 10\n        while True:\n            print('Mutation')\n        n = 10\n        dp = [0, 1]\n        for i in range(2, n + 1):\n            dp.append(dp[i - 1] + dp[i - 2])\n        print(dp[n])\n\n        def dfs(node):\n            if node == None:\n                return []\n            left = dfs(node.left)\n            right = dfs(node.right)\n    (module, version) = serialize('\\nmodule @jit_f.0 {\\n  func.func public @main(%arg0: tensor<3xf32>) -> tensor<3xf32> {\\n    %0 = stablehlo.cosine %arg0 : tensor<3xf32>\\n    %1 = stablehlo.sine %0 : tensor<3xf32>\\n    return %1 : tensor<3xf32>\\n  }\\n}\\n')\n    return xla.call_module([x], version=version, module=module, Tout=[x.dtype], Sout=[x.shape], platforms=[self.testing_platform()])",
            "def f(x):\n    if False:\n        i = 10\n        while True:\n            print('Mutation')\n        dp = [0, 1]\n        for i in range(2, n + 1):\n            dp.append(dp[i - 1] + dp[i - 2])\n        print(dp[n])\n\n        def dfs(node):\n            if node == None:\n                return []\n            left = dfs(node.left)\n            right = dfs(node.right)\n        length = 15\n        if length <= 0:\n            return []\n        elif length == 1:\n            return [0]\n        sequence = [0, 1]\n        while len(sequence) < length:\n            next_value = sequence[-1] + sequence[-2]\n            sequence.append(next_value)\n        return sequence\n    (module, version) = serialize('\\nmodule @jit_f.0 {\\n  func.func public @main(%arg0: tensor<3xf32>) -> tensor<3xf32> {\\n    %0 = stablehlo.cosine %arg0 : tensor<3xf32>\\n    %1 = stablehlo.sine %0 : tensor<3xf32>\\n    return %1 : tensor<3xf32>\\n  }\\n}\\n')\n    return xla.call_module([x], version=version, module=module, Tout=[x.dtype], Sout=[x.shape], platforms=[self.testing_platform()])"
        ]
    },
    {
        "func_name": "test_basic",
        "original": "def test_basic(self):\n    x = np.array([1.0, 2.0, 3.0], dtype=np.float32)\n\n    def f(x):\n        (module, version) = serialize('\\nmodule @jit_f.0 {\\n  func.func public @main(%arg0: tensor<3xf32>) -> tensor<3xf32> {\\n    %0 = stablehlo.cosine %arg0 : tensor<3xf32>\\n    %1 = stablehlo.sine %0 : tensor<3xf32>\\n    return %1 : tensor<3xf32>\\n  }\\n}\\n')\n        return xla.call_module([x], version=version, module=module, Tout=[x.dtype], Sout=[x.shape], platforms=[self.testing_platform()])\n    self._assertOpOutputMatchesExpected(f, (x,), (np.sin(np.cos(x)),))",
        "mutated": [
            "def test_basic(self):\n    if False:\n        i = 10\n    x = np.array([1.0, 2.0, 3.0], dtype=np.float32)\n\n    def f(x):\n        (module, version) = serialize('\\nmodule @jit_f.0 {\\n  func.func public @main(%arg0: tensor<3xf32>) -> tensor<3xf32> {\\n    %0 = stablehlo.cosine %arg0 : tensor<3xf32>\\n    %1 = stablehlo.sine %0 : tensor<3xf32>\\n    return %1 : tensor<3xf32>\\n  }\\n}\\n')\n        return xla.call_module([x], version=version, module=module, Tout=[x.dtype], Sout=[x.shape], platforms=[self.testing_platform()])\n    self._assertOpOutputMatchesExpected(f, (x,), (np.sin(np.cos(x)),))",
            "def test_basic(self):\n    if False:\n        i = 10\n        while True:\n            print('Mutation')\n    x = np.array([1.0, 2.0, 3.0], dtype=np.float32)\n\n    def f(x):\n        (module, version) = serialize('\\nmodule @jit_f.0 {\\n  func.func public @main(%arg0: tensor<3xf32>) -> tensor<3xf32> {\\n    %0 = stablehlo.cosine %arg0 : tensor<3xf32>\\n    %1 = stablehlo.sine %0 : tensor<3xf32>\\n    return %1 : tensor<3xf32>\\n  }\\n}\\n')\n        return xla.call_module([x], version=version, module=module, Tout=[x.dtype], Sout=[x.shape], platforms=[self.testing_platform()])\n    self._assertOpOutputMatchesExpected(f, (x,), (np.sin(np.cos(x)),))",
            "def test_basic(self):\n    if False:\n        i = 10\n        while True:\n            print('Mutation')\n        n = 10\n        dp = [0, 1]\n        for i in range(2, n + 1):\n            dp.append(dp[i - 1] + dp[i - 2])\n        print(dp[n])\n    x = np.array([1.0, 2.0, 3.0], dtype=np.float32)\n\n    def f(x):\n        (module, version) = serialize('\\nmodule @jit_f.0 {\\n  func.func public @main(%arg0: tensor<3xf32>) -> tensor<3xf32> {\\n    %0 = stablehlo.cosine %arg0 : tensor<3xf32>\\n    %1 = stablehlo.sine %0 : tensor<3xf32>\\n    return %1 : tensor<3xf32>\\n  }\\n}\\n')\n        return xla.call_module([x], version=version, module=module, Tout=[x.dtype], Sout=[x.shape], platforms=[self.testing_platform()])\n    self._assertOpOutputMatchesExpected(f, (x,), (np.sin(np.cos(x)),))",
            "def test_basic(self):\n    if False:\n        i = 10\n        while True:\n            print('Mutation')\n        n = 10\n        dp = [0, 1]\n        for i in range(2, n + 1):\n            dp.append(dp[i - 1] + dp[i - 2])\n        print(dp[n])\n\n        def dfs(node):\n            if node == None:\n                return []\n            left = dfs(node.left)\n            right = dfs(node.right)\n    x = np.array([1.0, 2.0, 3.0], dtype=np.float32)\n\n    def f(x):\n        (module, version) = serialize('\\nmodule @jit_f.0 {\\n  func.func public @main(%arg0: tensor<3xf32>) -> tensor<3xf32> {\\n    %0 = stablehlo.cosine %arg0 : tensor<3xf32>\\n    %1 = stablehlo.sine %0 : tensor<3xf32>\\n    return %1 : tensor<3xf32>\\n  }\\n}\\n')\n        return xla.call_module([x], version=version, module=module, Tout=[x.dtype], Sout=[x.shape], platforms=[self.testing_platform()])\n    self._assertOpOutputMatchesExpected(f, (x,), (np.sin(np.cos(x)),))",
            "def test_basic(self):\n    if False:\n        i = 10\n        while True:\n            print('Mutation')\n        dp = [0, 1]\n        for i in range(2, n + 1):\n            dp.append(dp[i - 1] + dp[i - 2])\n        print(dp[n])\n\n        def dfs(node):\n            if node == None:\n                return []\n            left = dfs(node.left)\n            right = dfs(node.right)\n        length = 15\n        if length <= 0:\n            return []\n        elif length == 1:\n            return [0]\n        sequence = [0, 1]\n        while len(sequence) < length:\n            next_value = sequence[-1] + sequence[-2]\n            sequence.append(next_value)\n        return sequence\n    x = np.array([1.0, 2.0, 3.0], dtype=np.float32)\n\n    def f(x):\n        (module, version) = serialize('\\nmodule @jit_f.0 {\\n  func.func public @main(%arg0: tensor<3xf32>) -> tensor<3xf32> {\\n    %0 = stablehlo.cosine %arg0 : tensor<3xf32>\\n    %1 = stablehlo.sine %0 : tensor<3xf32>\\n    return %1 : tensor<3xf32>\\n  }\\n}\\n')\n        return xla.call_module([x], version=version, module=module, Tout=[x.dtype], Sout=[x.shape], platforms=[self.testing_platform()])\n    self._assertOpOutputMatchesExpected(f, (x,), (np.sin(np.cos(x)),))"
        ]
    },
    {
        "func_name": "f",
        "original": "def f(x):\n    (module, _) = serialize('\\nmodule @jit_f.0 {\\n  func.func public @main(%arg0: !stablehlo.token, %arg1: tensor<3xf32>) -> (!stablehlo.token, tensor<3xf32>) {\\n    %0 = stablehlo.cosine %arg1 : tensor<3xf32>\\n    %1 = stablehlo.sine %0 : tensor<3xf32>\\n    return %arg0, %1 : !stablehlo.token, tensor<3xf32>\\n  }\\n}\\n')\n    return xla.call_module([x], version=8, module=module, Tout=[x.dtype], Sout=[x.shape], has_token_input_output=True, platforms=[self.testing_platform()])",
        "mutated": [
            "def f(x):\n    if False:\n        i = 10\n    (module, _) = serialize('\\nmodule @jit_f.0 {\\n  func.func public @main(%arg0: !stablehlo.token, %arg1: tensor<3xf32>) -> (!stablehlo.token, tensor<3xf32>) {\\n    %0 = stablehlo.cosine %arg1 : tensor<3xf32>\\n    %1 = stablehlo.sine %0 : tensor<3xf32>\\n    return %arg0, %1 : !stablehlo.token, tensor<3xf32>\\n  }\\n}\\n')\n    return xla.call_module([x], version=8, module=module, Tout=[x.dtype], Sout=[x.shape], has_token_input_output=True, platforms=[self.testing_platform()])",
            "def f(x):\n    if False:\n        i = 10\n        while True:\n            print('Mutation')\n    (module, _) = serialize('\\nmodule @jit_f.0 {\\n  func.func public @main(%arg0: !stablehlo.token, %arg1: tensor<3xf32>) -> (!stablehlo.token, tensor<3xf32>) {\\n    %0 = stablehlo.cosine %arg1 : tensor<3xf32>\\n    %1 = stablehlo.sine %0 : tensor<3xf32>\\n    return %arg0, %1 : !stablehlo.token, tensor<3xf32>\\n  }\\n}\\n')\n    return xla.call_module([x], version=8, module=module, Tout=[x.dtype], Sout=[x.shape], has_token_input_output=True, platforms=[self.testing_platform()])",
            "def f(x):\n    if False:\n        i = 10\n        while True:\n            print('Mutation')\n        n = 10\n        dp = [0, 1]\n        for i in range(2, n + 1):\n            dp.append(dp[i - 1] + dp[i - 2])\n        print(dp[n])\n    (module, _) = serialize('\\nmodule @jit_f.0 {\\n  func.func public @main(%arg0: !stablehlo.token, %arg1: tensor<3xf32>) -> (!stablehlo.token, tensor<3xf32>) {\\n    %0 = stablehlo.cosine %arg1 : tensor<3xf32>\\n    %1 = stablehlo.sine %0 : tensor<3xf32>\\n    return %arg0, %1 : !stablehlo.token, tensor<3xf32>\\n  }\\n}\\n')\n    return xla.call_module([x], version=8, module=module, Tout=[x.dtype], Sout=[x.shape], has_token_input_output=True, platforms=[self.testing_platform()])",
            "def f(x):\n    if False:\n        i = 10\n        while True:\n            print('Mutation')\n        n = 10\n        dp = [0, 1]\n        for i in range(2, n + 1):\n            dp.append(dp[i - 1] + dp[i - 2])\n        print(dp[n])\n\n        def dfs(node):\n            if node == None:\n                return []\n            left = dfs(node.left)\n            right = dfs(node.right)\n    (module, _) = serialize('\\nmodule @jit_f.0 {\\n  func.func public @main(%arg0: !stablehlo.token, %arg1: tensor<3xf32>) -> (!stablehlo.token, tensor<3xf32>) {\\n    %0 = stablehlo.cosine %arg1 : tensor<3xf32>\\n    %1 = stablehlo.sine %0 : tensor<3xf32>\\n    return %arg0, %1 : !stablehlo.token, tensor<3xf32>\\n  }\\n}\\n')\n    return xla.call_module([x], version=8, module=module, Tout=[x.dtype], Sout=[x.shape], has_token_input_output=True, platforms=[self.testing_platform()])",
            "def f(x):\n    if False:\n        i = 10\n        while True:\n            print('Mutation')\n        dp = [0, 1]\n        for i in range(2, n + 1):\n            dp.append(dp[i - 1] + dp[i - 2])\n        print(dp[n])\n\n        def dfs(node):\n            if node == None:\n                return []\n            left = dfs(node.left)\n            right = dfs(node.right)\n        length = 15\n        if length <= 0:\n            return []\n        elif length == 1:\n            return [0]\n        sequence = [0, 1]\n        while len(sequence) < length:\n            next_value = sequence[-1] + sequence[-2]\n            sequence.append(next_value)\n        return sequence\n    (module, _) = serialize('\\nmodule @jit_f.0 {\\n  func.func public @main(%arg0: !stablehlo.token, %arg1: tensor<3xf32>) -> (!stablehlo.token, tensor<3xf32>) {\\n    %0 = stablehlo.cosine %arg1 : tensor<3xf32>\\n    %1 = stablehlo.sine %0 : tensor<3xf32>\\n    return %arg0, %1 : !stablehlo.token, tensor<3xf32>\\n  }\\n}\\n')\n    return xla.call_module([x], version=8, module=module, Tout=[x.dtype], Sout=[x.shape], has_token_input_output=True, platforms=[self.testing_platform()])"
        ]
    },
    {
        "func_name": "test_basic_with_token_v8",
        "original": "def test_basic_with_token_v8(self):\n    x = np.array([1.0, 2.0, 3.0], dtype=np.float32)\n\n    def f(x):\n        (module, _) = serialize('\\nmodule @jit_f.0 {\\n  func.func public @main(%arg0: !stablehlo.token, %arg1: tensor<3xf32>) -> (!stablehlo.token, tensor<3xf32>) {\\n    %0 = stablehlo.cosine %arg1 : tensor<3xf32>\\n    %1 = stablehlo.sine %0 : tensor<3xf32>\\n    return %arg0, %1 : !stablehlo.token, tensor<3xf32>\\n  }\\n}\\n')\n        return xla.call_module([x], version=8, module=module, Tout=[x.dtype], Sout=[x.shape], has_token_input_output=True, platforms=[self.testing_platform()])\n    self._assertOpOutputMatchesExpected(f, (x,), (np.sin(np.cos(x)),))",
        "mutated": [
            "def test_basic_with_token_v8(self):\n    if False:\n        i = 10\n    x = np.array([1.0, 2.0, 3.0], dtype=np.float32)\n\n    def f(x):\n        (module, _) = serialize('\\nmodule @jit_f.0 {\\n  func.func public @main(%arg0: !stablehlo.token, %arg1: tensor<3xf32>) -> (!stablehlo.token, tensor<3xf32>) {\\n    %0 = stablehlo.cosine %arg1 : tensor<3xf32>\\n    %1 = stablehlo.sine %0 : tensor<3xf32>\\n    return %arg0, %1 : !stablehlo.token, tensor<3xf32>\\n  }\\n}\\n')\n        return xla.call_module([x], version=8, module=module, Tout=[x.dtype], Sout=[x.shape], has_token_input_output=True, platforms=[self.testing_platform()])\n    self._assertOpOutputMatchesExpected(f, (x,), (np.sin(np.cos(x)),))",
            "def test_basic_with_token_v8(self):\n    if False:\n        i = 10\n        while True:\n            print('Mutation')\n    x = np.array([1.0, 2.0, 3.0], dtype=np.float32)\n\n    def f(x):\n        (module, _) = serialize('\\nmodule @jit_f.0 {\\n  func.func public @main(%arg0: !stablehlo.token, %arg1: tensor<3xf32>) -> (!stablehlo.token, tensor<3xf32>) {\\n    %0 = stablehlo.cosine %arg1 : tensor<3xf32>\\n    %1 = stablehlo.sine %0 : tensor<3xf32>\\n    return %arg0, %1 : !stablehlo.token, tensor<3xf32>\\n  }\\n}\\n')\n        return xla.call_module([x], version=8, module=module, Tout=[x.dtype], Sout=[x.shape], has_token_input_output=True, platforms=[self.testing_platform()])\n    self._assertOpOutputMatchesExpected(f, (x,), (np.sin(np.cos(x)),))",
            "def test_basic_with_token_v8(self):\n    if False:\n        i = 10\n        while True:\n            print('Mutation')\n        n = 10\n        dp = [0, 1]\n        for i in range(2, n + 1):\n            dp.append(dp[i - 1] + dp[i - 2])\n        print(dp[n])\n    x = np.array([1.0, 2.0, 3.0], dtype=np.float32)\n\n    def f(x):\n        (module, _) = serialize('\\nmodule @jit_f.0 {\\n  func.func public @main(%arg0: !stablehlo.token, %arg1: tensor<3xf32>) -> (!stablehlo.token, tensor<3xf32>) {\\n    %0 = stablehlo.cosine %arg1 : tensor<3xf32>\\n    %1 = stablehlo.sine %0 : tensor<3xf32>\\n    return %arg0, %1 : !stablehlo.token, tensor<3xf32>\\n  }\\n}\\n')\n        return xla.call_module([x], version=8, module=module, Tout=[x.dtype], Sout=[x.shape], has_token_input_output=True, platforms=[self.testing_platform()])\n    self._assertOpOutputMatchesExpected(f, (x,), (np.sin(np.cos(x)),))",
            "def test_basic_with_token_v8(self):\n    if False:\n        i = 10\n        while True:\n            print('Mutation')\n        n = 10\n        dp = [0, 1]\n        for i in range(2, n + 1):\n            dp.append(dp[i - 1] + dp[i - 2])\n        print(dp[n])\n\n        def dfs(node):\n            if node == None:\n                return []\n            left = dfs(node.left)\n            right = dfs(node.right)\n    x = np.array([1.0, 2.0, 3.0], dtype=np.float32)\n\n    def f(x):\n        (module, _) = serialize('\\nmodule @jit_f.0 {\\n  func.func public @main(%arg0: !stablehlo.token, %arg1: tensor<3xf32>) -> (!stablehlo.token, tensor<3xf32>) {\\n    %0 = stablehlo.cosine %arg1 : tensor<3xf32>\\n    %1 = stablehlo.sine %0 : tensor<3xf32>\\n    return %arg0, %1 : !stablehlo.token, tensor<3xf32>\\n  }\\n}\\n')\n        return xla.call_module([x], version=8, module=module, Tout=[x.dtype], Sout=[x.shape], has_token_input_output=True, platforms=[self.testing_platform()])\n    self._assertOpOutputMatchesExpected(f, (x,), (np.sin(np.cos(x)),))",
            "def test_basic_with_token_v8(self):\n    if False:\n        i = 10\n        while True:\n            print('Mutation')\n        dp = [0, 1]\n        for i in range(2, n + 1):\n            dp.append(dp[i - 1] + dp[i - 2])\n        print(dp[n])\n\n        def dfs(node):\n            if node == None:\n                return []\n            left = dfs(node.left)\n            right = dfs(node.right)\n        length = 15\n        if length <= 0:\n            return []\n        elif length == 1:\n            return [0]\n        sequence = [0, 1]\n        while len(sequence) < length:\n            next_value = sequence[-1] + sequence[-2]\n            sequence.append(next_value)\n        return sequence\n    x = np.array([1.0, 2.0, 3.0], dtype=np.float32)\n\n    def f(x):\n        (module, _) = serialize('\\nmodule @jit_f.0 {\\n  func.func public @main(%arg0: !stablehlo.token, %arg1: tensor<3xf32>) -> (!stablehlo.token, tensor<3xf32>) {\\n    %0 = stablehlo.cosine %arg1 : tensor<3xf32>\\n    %1 = stablehlo.sine %0 : tensor<3xf32>\\n    return %arg0, %1 : !stablehlo.token, tensor<3xf32>\\n  }\\n}\\n')\n        return xla.call_module([x], version=8, module=module, Tout=[x.dtype], Sout=[x.shape], has_token_input_output=True, platforms=[self.testing_platform()])\n    self._assertOpOutputMatchesExpected(f, (x,), (np.sin(np.cos(x)),))"
        ]
    },
    {
        "func_name": "f",
        "original": "def f(x):\n    (module, version) = serialize('\\nmodule @jit_f.0 {\\n  func.func public @main(%arg0: !stablehlo.token {jax.token = true}, %arg1: !stablehlo.token {jax.token = true}, %arg2: tensor<3xf32>) -> (!stablehlo.token, !stablehlo.token, tensor<3xf32>) {\\n    %0 = stablehlo.cosine %arg2 : tensor<3xf32>\\n    %1 = stablehlo.sine %0 : tensor<3xf32>\\n    return %arg0, %arg1, %1 : !stablehlo.token, !stablehlo.token, tensor<3xf32>\\n  }\\n}\\n')\n    return xla.call_module([x], version=version, module=module, Tout=[x.dtype], Sout=[x.shape], platforms=[self.testing_platform()])",
        "mutated": [
            "def f(x):\n    if False:\n        i = 10\n    (module, version) = serialize('\\nmodule @jit_f.0 {\\n  func.func public @main(%arg0: !stablehlo.token {jax.token = true}, %arg1: !stablehlo.token {jax.token = true}, %arg2: tensor<3xf32>) -> (!stablehlo.token, !stablehlo.token, tensor<3xf32>) {\\n    %0 = stablehlo.cosine %arg2 : tensor<3xf32>\\n    %1 = stablehlo.sine %0 : tensor<3xf32>\\n    return %arg0, %arg1, %1 : !stablehlo.token, !stablehlo.token, tensor<3xf32>\\n  }\\n}\\n')\n    return xla.call_module([x], version=version, module=module, Tout=[x.dtype], Sout=[x.shape], platforms=[self.testing_platform()])",
            "def f(x):\n    if False:\n        i = 10\n        while True:\n            print('Mutation')\n    (module, version) = serialize('\\nmodule @jit_f.0 {\\n  func.func public @main(%arg0: !stablehlo.token {jax.token = true}, %arg1: !stablehlo.token {jax.token = true}, %arg2: tensor<3xf32>) -> (!stablehlo.token, !stablehlo.token, tensor<3xf32>) {\\n    %0 = stablehlo.cosine %arg2 : tensor<3xf32>\\n    %1 = stablehlo.sine %0 : tensor<3xf32>\\n    return %arg0, %arg1, %1 : !stablehlo.token, !stablehlo.token, tensor<3xf32>\\n  }\\n}\\n')\n    return xla.call_module([x], version=version, module=module, Tout=[x.dtype], Sout=[x.shape], platforms=[self.testing_platform()])",
            "def f(x):\n    if False:\n        i = 10\n        while True:\n            print('Mutation')\n        n = 10\n        dp = [0, 1]\n        for i in range(2, n + 1):\n            dp.append(dp[i - 1] + dp[i - 2])\n        print(dp[n])\n    (module, version) = serialize('\\nmodule @jit_f.0 {\\n  func.func public @main(%arg0: !stablehlo.token {jax.token = true}, %arg1: !stablehlo.token {jax.token = true}, %arg2: tensor<3xf32>) -> (!stablehlo.token, !stablehlo.token, tensor<3xf32>) {\\n    %0 = stablehlo.cosine %arg2 : tensor<3xf32>\\n    %1 = stablehlo.sine %0 : tensor<3xf32>\\n    return %arg0, %arg1, %1 : !stablehlo.token, !stablehlo.token, tensor<3xf32>\\n  }\\n}\\n')\n    return xla.call_module([x], version=version, module=module, Tout=[x.dtype], Sout=[x.shape], platforms=[self.testing_platform()])",
            "def f(x):\n    if False:\n        i = 10\n        while True:\n            print('Mutation')\n        n = 10\n        dp = [0, 1]\n        for i in range(2, n + 1):\n            dp.append(dp[i - 1] + dp[i - 2])\n        print(dp[n])\n\n        def dfs(node):\n            if node == None:\n                return []\n            left = dfs(node.left)\n            right = dfs(node.right)\n    (module, version) = serialize('\\nmodule @jit_f.0 {\\n  func.func public @main(%arg0: !stablehlo.token {jax.token = true}, %arg1: !stablehlo.token {jax.token = true}, %arg2: tensor<3xf32>) -> (!stablehlo.token, !stablehlo.token, tensor<3xf32>) {\\n    %0 = stablehlo.cosine %arg2 : tensor<3xf32>\\n    %1 = stablehlo.sine %0 : tensor<3xf32>\\n    return %arg0, %arg1, %1 : !stablehlo.token, !stablehlo.token, tensor<3xf32>\\n  }\\n}\\n')\n    return xla.call_module([x], version=version, module=module, Tout=[x.dtype], Sout=[x.shape], platforms=[self.testing_platform()])",
            "def f(x):\n    if False:\n        i = 10\n        while True:\n            print('Mutation')\n        dp = [0, 1]\n        for i in range(2, n + 1):\n            dp.append(dp[i - 1] + dp[i - 2])\n        print(dp[n])\n\n        def dfs(node):\n            if node == None:\n                return []\n            left = dfs(node.left)\n            right = dfs(node.right)\n        length = 15\n        if length <= 0:\n            return []\n        elif length == 1:\n            return [0]\n        sequence = [0, 1]\n        while len(sequence) < length:\n            next_value = sequence[-1] + sequence[-2]\n            sequence.append(next_value)\n        return sequence\n    (module, version) = serialize('\\nmodule @jit_f.0 {\\n  func.func public @main(%arg0: !stablehlo.token {jax.token = true}, %arg1: !stablehlo.token {jax.token = true}, %arg2: tensor<3xf32>) -> (!stablehlo.token, !stablehlo.token, tensor<3xf32>) {\\n    %0 = stablehlo.cosine %arg2 : tensor<3xf32>\\n    %1 = stablehlo.sine %0 : tensor<3xf32>\\n    return %arg0, %arg1, %1 : !stablehlo.token, !stablehlo.token, tensor<3xf32>\\n  }\\n}\\n')\n    return xla.call_module([x], version=version, module=module, Tout=[x.dtype], Sout=[x.shape], platforms=[self.testing_platform()])"
        ]
    },
    {
        "func_name": "test_basic_with_multiple_tokens",
        "original": "def test_basic_with_multiple_tokens(self):\n    x = np.array([1.0, 2.0, 3.0], dtype=np.float32)\n\n    def f(x):\n        (module, version) = serialize('\\nmodule @jit_f.0 {\\n  func.func public @main(%arg0: !stablehlo.token {jax.token = true}, %arg1: !stablehlo.token {jax.token = true}, %arg2: tensor<3xf32>) -> (!stablehlo.token, !stablehlo.token, tensor<3xf32>) {\\n    %0 = stablehlo.cosine %arg2 : tensor<3xf32>\\n    %1 = stablehlo.sine %0 : tensor<3xf32>\\n    return %arg0, %arg1, %1 : !stablehlo.token, !stablehlo.token, tensor<3xf32>\\n  }\\n}\\n')\n        return xla.call_module([x], version=version, module=module, Tout=[x.dtype], Sout=[x.shape], platforms=[self.testing_platform()])\n    self._assertOpOutputMatchesExpected(f, (x,), (np.sin(np.cos(x)),))",
        "mutated": [
            "def test_basic_with_multiple_tokens(self):\n    if False:\n        i = 10\n    x = np.array([1.0, 2.0, 3.0], dtype=np.float32)\n\n    def f(x):\n        (module, version) = serialize('\\nmodule @jit_f.0 {\\n  func.func public @main(%arg0: !stablehlo.token {jax.token = true}, %arg1: !stablehlo.token {jax.token = true}, %arg2: tensor<3xf32>) -> (!stablehlo.token, !stablehlo.token, tensor<3xf32>) {\\n    %0 = stablehlo.cosine %arg2 : tensor<3xf32>\\n    %1 = stablehlo.sine %0 : tensor<3xf32>\\n    return %arg0, %arg1, %1 : !stablehlo.token, !stablehlo.token, tensor<3xf32>\\n  }\\n}\\n')\n        return xla.call_module([x], version=version, module=module, Tout=[x.dtype], Sout=[x.shape], platforms=[self.testing_platform()])\n    self._assertOpOutputMatchesExpected(f, (x,), (np.sin(np.cos(x)),))",
            "def test_basic_with_multiple_tokens(self):\n    if False:\n        i = 10\n        while True:\n            print('Mutation')\n    x = np.array([1.0, 2.0, 3.0], dtype=np.float32)\n\n    def f(x):\n        (module, version) = serialize('\\nmodule @jit_f.0 {\\n  func.func public @main(%arg0: !stablehlo.token {jax.token = true}, %arg1: !stablehlo.token {jax.token = true}, %arg2: tensor<3xf32>) -> (!stablehlo.token, !stablehlo.token, tensor<3xf32>) {\\n    %0 = stablehlo.cosine %arg2 : tensor<3xf32>\\n    %1 = stablehlo.sine %0 : tensor<3xf32>\\n    return %arg0, %arg1, %1 : !stablehlo.token, !stablehlo.token, tensor<3xf32>\\n  }\\n}\\n')\n        return xla.call_module([x], version=version, module=module, Tout=[x.dtype], Sout=[x.shape], platforms=[self.testing_platform()])\n    self._assertOpOutputMatchesExpected(f, (x,), (np.sin(np.cos(x)),))",
            "def test_basic_with_multiple_tokens(self):\n    if False:\n        i = 10\n        while True:\n            print('Mutation')\n        n = 10\n        dp = [0, 1]\n        for i in range(2, n + 1):\n            dp.append(dp[i - 1] + dp[i - 2])\n        print(dp[n])\n    x = np.array([1.0, 2.0, 3.0], dtype=np.float32)\n\n    def f(x):\n        (module, version) = serialize('\\nmodule @jit_f.0 {\\n  func.func public @main(%arg0: !stablehlo.token {jax.token = true}, %arg1: !stablehlo.token {jax.token = true}, %arg2: tensor<3xf32>) -> (!stablehlo.token, !stablehlo.token, tensor<3xf32>) {\\n    %0 = stablehlo.cosine %arg2 : tensor<3xf32>\\n    %1 = stablehlo.sine %0 : tensor<3xf32>\\n    return %arg0, %arg1, %1 : !stablehlo.token, !stablehlo.token, tensor<3xf32>\\n  }\\n}\\n')\n        return xla.call_module([x], version=version, module=module, Tout=[x.dtype], Sout=[x.shape], platforms=[self.testing_platform()])\n    self._assertOpOutputMatchesExpected(f, (x,), (np.sin(np.cos(x)),))",
            "def test_basic_with_multiple_tokens(self):\n    if False:\n        i = 10\n        while True:\n            print('Mutation')\n        n = 10\n        dp = [0, 1]\n        for i in range(2, n + 1):\n            dp.append(dp[i - 1] + dp[i - 2])\n        print(dp[n])\n\n        def dfs(node):\n            if node == None:\n                return []\n            left = dfs(node.left)\n            right = dfs(node.right)\n    x = np.array([1.0, 2.0, 3.0], dtype=np.float32)\n\n    def f(x):\n        (module, version) = serialize('\\nmodule @jit_f.0 {\\n  func.func public @main(%arg0: !stablehlo.token {jax.token = true}, %arg1: !stablehlo.token {jax.token = true}, %arg2: tensor<3xf32>) -> (!stablehlo.token, !stablehlo.token, tensor<3xf32>) {\\n    %0 = stablehlo.cosine %arg2 : tensor<3xf32>\\n    %1 = stablehlo.sine %0 : tensor<3xf32>\\n    return %arg0, %arg1, %1 : !stablehlo.token, !stablehlo.token, tensor<3xf32>\\n  }\\n}\\n')\n        return xla.call_module([x], version=version, module=module, Tout=[x.dtype], Sout=[x.shape], platforms=[self.testing_platform()])\n    self._assertOpOutputMatchesExpected(f, (x,), (np.sin(np.cos(x)),))",
            "def test_basic_with_multiple_tokens(self):\n    if False:\n        i = 10\n        while True:\n            print('Mutation')\n        dp = [0, 1]\n        for i in range(2, n + 1):\n            dp.append(dp[i - 1] + dp[i - 2])\n        print(dp[n])\n\n        def dfs(node):\n            if node == None:\n                return []\n            left = dfs(node.left)\n            right = dfs(node.right)\n        length = 15\n        if length <= 0:\n            return []\n        elif length == 1:\n            return [0]\n        sequence = [0, 1]\n        while len(sequence) < length:\n            next_value = sequence[-1] + sequence[-2]\n            sequence.append(next_value)\n        return sequence\n    x = np.array([1.0, 2.0, 3.0], dtype=np.float32)\n\n    def f(x):\n        (module, version) = serialize('\\nmodule @jit_f.0 {\\n  func.func public @main(%arg0: !stablehlo.token {jax.token = true}, %arg1: !stablehlo.token {jax.token = true}, %arg2: tensor<3xf32>) -> (!stablehlo.token, !stablehlo.token, tensor<3xf32>) {\\n    %0 = stablehlo.cosine %arg2 : tensor<3xf32>\\n    %1 = stablehlo.sine %0 : tensor<3xf32>\\n    return %arg0, %arg1, %1 : !stablehlo.token, !stablehlo.token, tensor<3xf32>\\n  }\\n}\\n')\n        return xla.call_module([x], version=version, module=module, Tout=[x.dtype], Sout=[x.shape], platforms=[self.testing_platform()])\n    self._assertOpOutputMatchesExpected(f, (x,), (np.sin(np.cos(x)),))"
        ]
    },
    {
        "func_name": "f",
        "original": "def f(x):\n    (module, version) = serialize('\\nmodule @jit_f.0 {\\n  func.func public @main(%arg0: tensor<i32>, %arg1: !stablehlo.token {jax.token = true}, %arg2: !stablehlo.token {jax.token = true}, %arg3: tensor<3xf32>) -> (!stablehlo.token, !stablehlo.token, tensor<3xf32>) {\\n    %0 = stablehlo.cosine %arg3 : tensor<3xf32>\\n    %1 = stablehlo.sine %0 : tensor<3xf32>\\n    return %arg1, %arg2, %1 : !stablehlo.token, !stablehlo.token, tensor<3xf32>\\n  }\\n}\\n')\n    return xla.call_module([np.int32(0), x], version=version, module=module, Tout=[x.dtype], Sout=[x.shape], platforms=[self.testing_platform()])",
        "mutated": [
            "def f(x):\n    if False:\n        i = 10\n    (module, version) = serialize('\\nmodule @jit_f.0 {\\n  func.func public @main(%arg0: tensor<i32>, %arg1: !stablehlo.token {jax.token = true}, %arg2: !stablehlo.token {jax.token = true}, %arg3: tensor<3xf32>) -> (!stablehlo.token, !stablehlo.token, tensor<3xf32>) {\\n    %0 = stablehlo.cosine %arg3 : tensor<3xf32>\\n    %1 = stablehlo.sine %0 : tensor<3xf32>\\n    return %arg1, %arg2, %1 : !stablehlo.token, !stablehlo.token, tensor<3xf32>\\n  }\\n}\\n')\n    return xla.call_module([np.int32(0), x], version=version, module=module, Tout=[x.dtype], Sout=[x.shape], platforms=[self.testing_platform()])",
            "def f(x):\n    if False:\n        i = 10\n        while True:\n            print('Mutation')\n    (module, version) = serialize('\\nmodule @jit_f.0 {\\n  func.func public @main(%arg0: tensor<i32>, %arg1: !stablehlo.token {jax.token = true}, %arg2: !stablehlo.token {jax.token = true}, %arg3: tensor<3xf32>) -> (!stablehlo.token, !stablehlo.token, tensor<3xf32>) {\\n    %0 = stablehlo.cosine %arg3 : tensor<3xf32>\\n    %1 = stablehlo.sine %0 : tensor<3xf32>\\n    return %arg1, %arg2, %1 : !stablehlo.token, !stablehlo.token, tensor<3xf32>\\n  }\\n}\\n')\n    return xla.call_module([np.int32(0), x], version=version, module=module, Tout=[x.dtype], Sout=[x.shape], platforms=[self.testing_platform()])",
            "def f(x):\n    if False:\n        i = 10\n        while True:\n            print('Mutation')\n        n = 10\n        dp = [0, 1]\n        for i in range(2, n + 1):\n            dp.append(dp[i - 1] + dp[i - 2])\n        print(dp[n])\n    (module, version) = serialize('\\nmodule @jit_f.0 {\\n  func.func public @main(%arg0: tensor<i32>, %arg1: !stablehlo.token {jax.token = true}, %arg2: !stablehlo.token {jax.token = true}, %arg3: tensor<3xf32>) -> (!stablehlo.token, !stablehlo.token, tensor<3xf32>) {\\n    %0 = stablehlo.cosine %arg3 : tensor<3xf32>\\n    %1 = stablehlo.sine %0 : tensor<3xf32>\\n    return %arg1, %arg2, %1 : !stablehlo.token, !stablehlo.token, tensor<3xf32>\\n  }\\n}\\n')\n    return xla.call_module([np.int32(0), x], version=version, module=module, Tout=[x.dtype], Sout=[x.shape], platforms=[self.testing_platform()])",
            "def f(x):\n    if False:\n        i = 10\n        while True:\n            print('Mutation')\n        n = 10\n        dp = [0, 1]\n        for i in range(2, n + 1):\n            dp.append(dp[i - 1] + dp[i - 2])\n        print(dp[n])\n\n        def dfs(node):\n            if node == None:\n                return []\n            left = dfs(node.left)\n            right = dfs(node.right)\n    (module, version) = serialize('\\nmodule @jit_f.0 {\\n  func.func public @main(%arg0: tensor<i32>, %arg1: !stablehlo.token {jax.token = true}, %arg2: !stablehlo.token {jax.token = true}, %arg3: tensor<3xf32>) -> (!stablehlo.token, !stablehlo.token, tensor<3xf32>) {\\n    %0 = stablehlo.cosine %arg3 : tensor<3xf32>\\n    %1 = stablehlo.sine %0 : tensor<3xf32>\\n    return %arg1, %arg2, %1 : !stablehlo.token, !stablehlo.token, tensor<3xf32>\\n  }\\n}\\n')\n    return xla.call_module([np.int32(0), x], version=version, module=module, Tout=[x.dtype], Sout=[x.shape], platforms=[self.testing_platform()])",
            "def f(x):\n    if False:\n        i = 10\n        while True:\n            print('Mutation')\n        dp = [0, 1]\n        for i in range(2, n + 1):\n            dp.append(dp[i - 1] + dp[i - 2])\n        print(dp[n])\n\n        def dfs(node):\n            if node == None:\n                return []\n            left = dfs(node.left)\n            right = dfs(node.right)\n        length = 15\n        if length <= 0:\n            return []\n        elif length == 1:\n            return [0]\n        sequence = [0, 1]\n        while len(sequence) < length:\n            next_value = sequence[-1] + sequence[-2]\n            sequence.append(next_value)\n        return sequence\n    (module, version) = serialize('\\nmodule @jit_f.0 {\\n  func.func public @main(%arg0: tensor<i32>, %arg1: !stablehlo.token {jax.token = true}, %arg2: !stablehlo.token {jax.token = true}, %arg3: tensor<3xf32>) -> (!stablehlo.token, !stablehlo.token, tensor<3xf32>) {\\n    %0 = stablehlo.cosine %arg3 : tensor<3xf32>\\n    %1 = stablehlo.sine %0 : tensor<3xf32>\\n    return %arg1, %arg2, %1 : !stablehlo.token, !stablehlo.token, tensor<3xf32>\\n  }\\n}\\n')\n    return xla.call_module([np.int32(0), x], version=version, module=module, Tout=[x.dtype], Sout=[x.shape], platforms=[self.testing_platform()])"
        ]
    },
    {
        "func_name": "test_basic_with_tokens_preceeded_by_other_args",
        "original": "def test_basic_with_tokens_preceeded_by_other_args(self):\n    x = np.array([1.0, 2.0, 3.0], dtype=np.float32)\n\n    def f(x):\n        (module, version) = serialize('\\nmodule @jit_f.0 {\\n  func.func public @main(%arg0: tensor<i32>, %arg1: !stablehlo.token {jax.token = true}, %arg2: !stablehlo.token {jax.token = true}, %arg3: tensor<3xf32>) -> (!stablehlo.token, !stablehlo.token, tensor<3xf32>) {\\n    %0 = stablehlo.cosine %arg3 : tensor<3xf32>\\n    %1 = stablehlo.sine %0 : tensor<3xf32>\\n    return %arg1, %arg2, %1 : !stablehlo.token, !stablehlo.token, tensor<3xf32>\\n  }\\n}\\n')\n        return xla.call_module([np.int32(0), x], version=version, module=module, Tout=[x.dtype], Sout=[x.shape], platforms=[self.testing_platform()])\n    self._assertOpOutputMatchesExpected(f, (x,), (np.sin(np.cos(x)),))",
        "mutated": [
            "def test_basic_with_tokens_preceeded_by_other_args(self):\n    if False:\n        i = 10\n    x = np.array([1.0, 2.0, 3.0], dtype=np.float32)\n\n    def f(x):\n        (module, version) = serialize('\\nmodule @jit_f.0 {\\n  func.func public @main(%arg0: tensor<i32>, %arg1: !stablehlo.token {jax.token = true}, %arg2: !stablehlo.token {jax.token = true}, %arg3: tensor<3xf32>) -> (!stablehlo.token, !stablehlo.token, tensor<3xf32>) {\\n    %0 = stablehlo.cosine %arg3 : tensor<3xf32>\\n    %1 = stablehlo.sine %0 : tensor<3xf32>\\n    return %arg1, %arg2, %1 : !stablehlo.token, !stablehlo.token, tensor<3xf32>\\n  }\\n}\\n')\n        return xla.call_module([np.int32(0), x], version=version, module=module, Tout=[x.dtype], Sout=[x.shape], platforms=[self.testing_platform()])\n    self._assertOpOutputMatchesExpected(f, (x,), (np.sin(np.cos(x)),))",
            "def test_basic_with_tokens_preceeded_by_other_args(self):\n    if False:\n        i = 10\n        while True:\n            print('Mutation')\n    x = np.array([1.0, 2.0, 3.0], dtype=np.float32)\n\n    def f(x):\n        (module, version) = serialize('\\nmodule @jit_f.0 {\\n  func.func public @main(%arg0: tensor<i32>, %arg1: !stablehlo.token {jax.token = true}, %arg2: !stablehlo.token {jax.token = true}, %arg3: tensor<3xf32>) -> (!stablehlo.token, !stablehlo.token, tensor<3xf32>) {\\n    %0 = stablehlo.cosine %arg3 : tensor<3xf32>\\n    %1 = stablehlo.sine %0 : tensor<3xf32>\\n    return %arg1, %arg2, %1 : !stablehlo.token, !stablehlo.token, tensor<3xf32>\\n  }\\n}\\n')\n        return xla.call_module([np.int32(0), x], version=version, module=module, Tout=[x.dtype], Sout=[x.shape], platforms=[self.testing_platform()])\n    self._assertOpOutputMatchesExpected(f, (x,), (np.sin(np.cos(x)),))",
            "def test_basic_with_tokens_preceeded_by_other_args(self):\n    if False:\n        i = 10\n        while True:\n            print('Mutation')\n        n = 10\n        dp = [0, 1]\n        for i in range(2, n + 1):\n            dp.append(dp[i - 1] + dp[i - 2])\n        print(dp[n])\n    x = np.array([1.0, 2.0, 3.0], dtype=np.float32)\n\n    def f(x):\n        (module, version) = serialize('\\nmodule @jit_f.0 {\\n  func.func public @main(%arg0: tensor<i32>, %arg1: !stablehlo.token {jax.token = true}, %arg2: !stablehlo.token {jax.token = true}, %arg3: tensor<3xf32>) -> (!stablehlo.token, !stablehlo.token, tensor<3xf32>) {\\n    %0 = stablehlo.cosine %arg3 : tensor<3xf32>\\n    %1 = stablehlo.sine %0 : tensor<3xf32>\\n    return %arg1, %arg2, %1 : !stablehlo.token, !stablehlo.token, tensor<3xf32>\\n  }\\n}\\n')\n        return xla.call_module([np.int32(0), x], version=version, module=module, Tout=[x.dtype], Sout=[x.shape], platforms=[self.testing_platform()])\n    self._assertOpOutputMatchesExpected(f, (x,), (np.sin(np.cos(x)),))",
            "def test_basic_with_tokens_preceeded_by_other_args(self):\n    if False:\n        i = 10\n        while True:\n            print('Mutation')\n        n = 10\n        dp = [0, 1]\n        for i in range(2, n + 1):\n            dp.append(dp[i - 1] + dp[i - 2])\n        print(dp[n])\n\n        def dfs(node):\n            if node == None:\n                return []\n            left = dfs(node.left)\n            right = dfs(node.right)\n    x = np.array([1.0, 2.0, 3.0], dtype=np.float32)\n\n    def f(x):\n        (module, version) = serialize('\\nmodule @jit_f.0 {\\n  func.func public @main(%arg0: tensor<i32>, %arg1: !stablehlo.token {jax.token = true}, %arg2: !stablehlo.token {jax.token = true}, %arg3: tensor<3xf32>) -> (!stablehlo.token, !stablehlo.token, tensor<3xf32>) {\\n    %0 = stablehlo.cosine %arg3 : tensor<3xf32>\\n    %1 = stablehlo.sine %0 : tensor<3xf32>\\n    return %arg1, %arg2, %1 : !stablehlo.token, !stablehlo.token, tensor<3xf32>\\n  }\\n}\\n')\n        return xla.call_module([np.int32(0), x], version=version, module=module, Tout=[x.dtype], Sout=[x.shape], platforms=[self.testing_platform()])\n    self._assertOpOutputMatchesExpected(f, (x,), (np.sin(np.cos(x)),))",
            "def test_basic_with_tokens_preceeded_by_other_args(self):\n    if False:\n        i = 10\n        while True:\n            print('Mutation')\n        dp = [0, 1]\n        for i in range(2, n + 1):\n            dp.append(dp[i - 1] + dp[i - 2])\n        print(dp[n])\n\n        def dfs(node):\n            if node == None:\n                return []\n            left = dfs(node.left)\n            right = dfs(node.right)\n        length = 15\n        if length <= 0:\n            return []\n        elif length == 1:\n            return [0]\n        sequence = [0, 1]\n        while len(sequence) < length:\n            next_value = sequence[-1] + sequence[-2]\n            sequence.append(next_value)\n        return sequence\n    x = np.array([1.0, 2.0, 3.0], dtype=np.float32)\n\n    def f(x):\n        (module, version) = serialize('\\nmodule @jit_f.0 {\\n  func.func public @main(%arg0: tensor<i32>, %arg1: !stablehlo.token {jax.token = true}, %arg2: !stablehlo.token {jax.token = true}, %arg3: tensor<3xf32>) -> (!stablehlo.token, !stablehlo.token, tensor<3xf32>) {\\n    %0 = stablehlo.cosine %arg3 : tensor<3xf32>\\n    %1 = stablehlo.sine %0 : tensor<3xf32>\\n    return %arg1, %arg2, %1 : !stablehlo.token, !stablehlo.token, tensor<3xf32>\\n  }\\n}\\n')\n        return xla.call_module([np.int32(0), x], version=version, module=module, Tout=[x.dtype], Sout=[x.shape], platforms=[self.testing_platform()])\n    self._assertOpOutputMatchesExpected(f, (x,), (np.sin(np.cos(x)),))"
        ]
    },
    {
        "func_name": "f",
        "original": "def f(x):\n    (module, version) = serialize('\\nmodule @jit_f_jax.0 {\\n  func.func public @main(%arg0: tensor<ui32>) -> tensor<i1> {\\n    %0 = stablehlo.constant dense<1> : tensor<ui32>\\n    %1 = \"stablehlo.compare\"(%arg0, %0) {compare_type = #stablehlo<comparison_type UNSIGNED>, comparison_direction = #stablehlo<comparison_direction GE>} : (tensor<ui32>, tensor<ui32>) -> tensor<i1>\\n    return %1 : tensor<i1>\\n  }\\n}\\n')\n    return xla.call_module([x], version=version, module=module, Tout=[res.dtype], Sout=[res.shape], platforms=[self.testing_platform()])",
        "mutated": [
            "def f(x):\n    if False:\n        i = 10\n    (module, version) = serialize('\\nmodule @jit_f_jax.0 {\\n  func.func public @main(%arg0: tensor<ui32>) -> tensor<i1> {\\n    %0 = stablehlo.constant dense<1> : tensor<ui32>\\n    %1 = \"stablehlo.compare\"(%arg0, %0) {compare_type = #stablehlo<comparison_type UNSIGNED>, comparison_direction = #stablehlo<comparison_direction GE>} : (tensor<ui32>, tensor<ui32>) -> tensor<i1>\\n    return %1 : tensor<i1>\\n  }\\n}\\n')\n    return xla.call_module([x], version=version, module=module, Tout=[res.dtype], Sout=[res.shape], platforms=[self.testing_platform()])",
            "def f(x):\n    if False:\n        i = 10\n        while True:\n            print('Mutation')\n    (module, version) = serialize('\\nmodule @jit_f_jax.0 {\\n  func.func public @main(%arg0: tensor<ui32>) -> tensor<i1> {\\n    %0 = stablehlo.constant dense<1> : tensor<ui32>\\n    %1 = \"stablehlo.compare\"(%arg0, %0) {compare_type = #stablehlo<comparison_type UNSIGNED>, comparison_direction = #stablehlo<comparison_direction GE>} : (tensor<ui32>, tensor<ui32>) -> tensor<i1>\\n    return %1 : tensor<i1>\\n  }\\n}\\n')\n    return xla.call_module([x], version=version, module=module, Tout=[res.dtype], Sout=[res.shape], platforms=[self.testing_platform()])",
            "def f(x):\n    if False:\n        i = 10\n        while True:\n            print('Mutation')\n        n = 10\n        dp = [0, 1]\n        for i in range(2, n + 1):\n            dp.append(dp[i - 1] + dp[i - 2])\n        print(dp[n])\n    (module, version) = serialize('\\nmodule @jit_f_jax.0 {\\n  func.func public @main(%arg0: tensor<ui32>) -> tensor<i1> {\\n    %0 = stablehlo.constant dense<1> : tensor<ui32>\\n    %1 = \"stablehlo.compare\"(%arg0, %0) {compare_type = #stablehlo<comparison_type UNSIGNED>, comparison_direction = #stablehlo<comparison_direction GE>} : (tensor<ui32>, tensor<ui32>) -> tensor<i1>\\n    return %1 : tensor<i1>\\n  }\\n}\\n')\n    return xla.call_module([x], version=version, module=module, Tout=[res.dtype], Sout=[res.shape], platforms=[self.testing_platform()])",
            "def f(x):\n    if False:\n        i = 10\n        while True:\n            print('Mutation')\n        n = 10\n        dp = [0, 1]\n        for i in range(2, n + 1):\n            dp.append(dp[i - 1] + dp[i - 2])\n        print(dp[n])\n\n        def dfs(node):\n            if node == None:\n                return []\n            left = dfs(node.left)\n            right = dfs(node.right)\n    (module, version) = serialize('\\nmodule @jit_f_jax.0 {\\n  func.func public @main(%arg0: tensor<ui32>) -> tensor<i1> {\\n    %0 = stablehlo.constant dense<1> : tensor<ui32>\\n    %1 = \"stablehlo.compare\"(%arg0, %0) {compare_type = #stablehlo<comparison_type UNSIGNED>, comparison_direction = #stablehlo<comparison_direction GE>} : (tensor<ui32>, tensor<ui32>) -> tensor<i1>\\n    return %1 : tensor<i1>\\n  }\\n}\\n')\n    return xla.call_module([x], version=version, module=module, Tout=[res.dtype], Sout=[res.shape], platforms=[self.testing_platform()])",
            "def f(x):\n    if False:\n        i = 10\n        while True:\n            print('Mutation')\n        dp = [0, 1]\n        for i in range(2, n + 1):\n            dp.append(dp[i - 1] + dp[i - 2])\n        print(dp[n])\n\n        def dfs(node):\n            if node == None:\n                return []\n            left = dfs(node.left)\n            right = dfs(node.right)\n        length = 15\n        if length <= 0:\n            return []\n        elif length == 1:\n            return [0]\n        sequence = [0, 1]\n        while len(sequence) < length:\n            next_value = sequence[-1] + sequence[-2]\n            sequence.append(next_value)\n        return sequence\n    (module, version) = serialize('\\nmodule @jit_f_jax.0 {\\n  func.func public @main(%arg0: tensor<ui32>) -> tensor<i1> {\\n    %0 = stablehlo.constant dense<1> : tensor<ui32>\\n    %1 = \"stablehlo.compare\"(%arg0, %0) {compare_type = #stablehlo<comparison_type UNSIGNED>, comparison_direction = #stablehlo<comparison_direction GE>} : (tensor<ui32>, tensor<ui32>) -> tensor<i1>\\n    return %1 : tensor<i1>\\n  }\\n}\\n')\n    return xla.call_module([x], version=version, module=module, Tout=[res.dtype], Sout=[res.shape], platforms=[self.testing_platform()])"
        ]
    },
    {
        "func_name": "test_compare",
        "original": "def test_compare(self):\n    x = np.uint32(2)\n    res = np.bool_(True)\n\n    def f(x):\n        (module, version) = serialize('\\nmodule @jit_f_jax.0 {\\n  func.func public @main(%arg0: tensor<ui32>) -> tensor<i1> {\\n    %0 = stablehlo.constant dense<1> : tensor<ui32>\\n    %1 = \"stablehlo.compare\"(%arg0, %0) {compare_type = #stablehlo<comparison_type UNSIGNED>, comparison_direction = #stablehlo<comparison_direction GE>} : (tensor<ui32>, tensor<ui32>) -> tensor<i1>\\n    return %1 : tensor<i1>\\n  }\\n}\\n')\n        return xla.call_module([x], version=version, module=module, Tout=[res.dtype], Sout=[res.shape], platforms=[self.testing_platform()])\n    self._assertOpOutputMatchesExpected(f, (x,), (res,))",
        "mutated": [
            "def test_compare(self):\n    if False:\n        i = 10\n    x = np.uint32(2)\n    res = np.bool_(True)\n\n    def f(x):\n        (module, version) = serialize('\\nmodule @jit_f_jax.0 {\\n  func.func public @main(%arg0: tensor<ui32>) -> tensor<i1> {\\n    %0 = stablehlo.constant dense<1> : tensor<ui32>\\n    %1 = \"stablehlo.compare\"(%arg0, %0) {compare_type = #stablehlo<comparison_type UNSIGNED>, comparison_direction = #stablehlo<comparison_direction GE>} : (tensor<ui32>, tensor<ui32>) -> tensor<i1>\\n    return %1 : tensor<i1>\\n  }\\n}\\n')\n        return xla.call_module([x], version=version, module=module, Tout=[res.dtype], Sout=[res.shape], platforms=[self.testing_platform()])\n    self._assertOpOutputMatchesExpected(f, (x,), (res,))",
            "def test_compare(self):\n    if False:\n        i = 10\n        while True:\n            print('Mutation')\n    x = np.uint32(2)\n    res = np.bool_(True)\n\n    def f(x):\n        (module, version) = serialize('\\nmodule @jit_f_jax.0 {\\n  func.func public @main(%arg0: tensor<ui32>) -> tensor<i1> {\\n    %0 = stablehlo.constant dense<1> : tensor<ui32>\\n    %1 = \"stablehlo.compare\"(%arg0, %0) {compare_type = #stablehlo<comparison_type UNSIGNED>, comparison_direction = #stablehlo<comparison_direction GE>} : (tensor<ui32>, tensor<ui32>) -> tensor<i1>\\n    return %1 : tensor<i1>\\n  }\\n}\\n')\n        return xla.call_module([x], version=version, module=module, Tout=[res.dtype], Sout=[res.shape], platforms=[self.testing_platform()])\n    self._assertOpOutputMatchesExpected(f, (x,), (res,))",
            "def test_compare(self):\n    if False:\n        i = 10\n        while True:\n            print('Mutation')\n        n = 10\n        dp = [0, 1]\n        for i in range(2, n + 1):\n            dp.append(dp[i - 1] + dp[i - 2])\n        print(dp[n])\n    x = np.uint32(2)\n    res = np.bool_(True)\n\n    def f(x):\n        (module, version) = serialize('\\nmodule @jit_f_jax.0 {\\n  func.func public @main(%arg0: tensor<ui32>) -> tensor<i1> {\\n    %0 = stablehlo.constant dense<1> : tensor<ui32>\\n    %1 = \"stablehlo.compare\"(%arg0, %0) {compare_type = #stablehlo<comparison_type UNSIGNED>, comparison_direction = #stablehlo<comparison_direction GE>} : (tensor<ui32>, tensor<ui32>) -> tensor<i1>\\n    return %1 : tensor<i1>\\n  }\\n}\\n')\n        return xla.call_module([x], version=version, module=module, Tout=[res.dtype], Sout=[res.shape], platforms=[self.testing_platform()])\n    self._assertOpOutputMatchesExpected(f, (x,), (res,))",
            "def test_compare(self):\n    if False:\n        i = 10\n        while True:\n            print('Mutation')\n        n = 10\n        dp = [0, 1]\n        for i in range(2, n + 1):\n            dp.append(dp[i - 1] + dp[i - 2])\n        print(dp[n])\n\n        def dfs(node):\n            if node == None:\n                return []\n            left = dfs(node.left)\n            right = dfs(node.right)\n    x = np.uint32(2)\n    res = np.bool_(True)\n\n    def f(x):\n        (module, version) = serialize('\\nmodule @jit_f_jax.0 {\\n  func.func public @main(%arg0: tensor<ui32>) -> tensor<i1> {\\n    %0 = stablehlo.constant dense<1> : tensor<ui32>\\n    %1 = \"stablehlo.compare\"(%arg0, %0) {compare_type = #stablehlo<comparison_type UNSIGNED>, comparison_direction = #stablehlo<comparison_direction GE>} : (tensor<ui32>, tensor<ui32>) -> tensor<i1>\\n    return %1 : tensor<i1>\\n  }\\n}\\n')\n        return xla.call_module([x], version=version, module=module, Tout=[res.dtype], Sout=[res.shape], platforms=[self.testing_platform()])\n    self._assertOpOutputMatchesExpected(f, (x,), (res,))",
            "def test_compare(self):\n    if False:\n        i = 10\n        while True:\n            print('Mutation')\n        dp = [0, 1]\n        for i in range(2, n + 1):\n            dp.append(dp[i - 1] + dp[i - 2])\n        print(dp[n])\n\n        def dfs(node):\n            if node == None:\n                return []\n            left = dfs(node.left)\n            right = dfs(node.right)\n        length = 15\n        if length <= 0:\n            return []\n        elif length == 1:\n            return [0]\n        sequence = [0, 1]\n        while len(sequence) < length:\n            next_value = sequence[-1] + sequence[-2]\n            sequence.append(next_value)\n        return sequence\n    x = np.uint32(2)\n    res = np.bool_(True)\n\n    def f(x):\n        (module, version) = serialize('\\nmodule @jit_f_jax.0 {\\n  func.func public @main(%arg0: tensor<ui32>) -> tensor<i1> {\\n    %0 = stablehlo.constant dense<1> : tensor<ui32>\\n    %1 = \"stablehlo.compare\"(%arg0, %0) {compare_type = #stablehlo<comparison_type UNSIGNED>, comparison_direction = #stablehlo<comparison_direction GE>} : (tensor<ui32>, tensor<ui32>) -> tensor<i1>\\n    return %1 : tensor<i1>\\n  }\\n}\\n')\n        return xla.call_module([x], version=version, module=module, Tout=[res.dtype], Sout=[res.shape], platforms=[self.testing_platform()])\n    self._assertOpOutputMatchesExpected(f, (x,), (res,))"
        ]
    },
    {
        "func_name": "f",
        "original": "def f(x, y):\n    (module, version) = serialize('\\nmodule @jit_f.0 {\\n  func.func public @main(%arg0: tensor<3xf32>, %arg1: tensor<4xf64>) -> (tensor<3xf32>, tensor<4xf64>) {\\n    %0 = stablehlo.sine %arg0 : tensor<3xf32>\\n    %1 = stablehlo.cosine %arg1 : tensor<4xf64>\\n    return %0, %1 : tensor<3xf32>, tensor<4xf64>\\n  }\\n}\\n')\n    return xla.call_module([x, y], version=version, module=module, Tout=[x.dtype, y.dtype], Sout=[x.shape, y.shape], platforms=[self.testing_platform()])",
        "mutated": [
            "def f(x, y):\n    if False:\n        i = 10\n    (module, version) = serialize('\\nmodule @jit_f.0 {\\n  func.func public @main(%arg0: tensor<3xf32>, %arg1: tensor<4xf64>) -> (tensor<3xf32>, tensor<4xf64>) {\\n    %0 = stablehlo.sine %arg0 : tensor<3xf32>\\n    %1 = stablehlo.cosine %arg1 : tensor<4xf64>\\n    return %0, %1 : tensor<3xf32>, tensor<4xf64>\\n  }\\n}\\n')\n    return xla.call_module([x, y], version=version, module=module, Tout=[x.dtype, y.dtype], Sout=[x.shape, y.shape], platforms=[self.testing_platform()])",
            "def f(x, y):\n    if False:\n        i = 10\n        while True:\n            print('Mutation')\n    (module, version) = serialize('\\nmodule @jit_f.0 {\\n  func.func public @main(%arg0: tensor<3xf32>, %arg1: tensor<4xf64>) -> (tensor<3xf32>, tensor<4xf64>) {\\n    %0 = stablehlo.sine %arg0 : tensor<3xf32>\\n    %1 = stablehlo.cosine %arg1 : tensor<4xf64>\\n    return %0, %1 : tensor<3xf32>, tensor<4xf64>\\n  }\\n}\\n')\n    return xla.call_module([x, y], version=version, module=module, Tout=[x.dtype, y.dtype], Sout=[x.shape, y.shape], platforms=[self.testing_platform()])",
            "def f(x, y):\n    if False:\n        i = 10\n        while True:\n            print('Mutation')\n        n = 10\n        dp = [0, 1]\n        for i in range(2, n + 1):\n            dp.append(dp[i - 1] + dp[i - 2])\n        print(dp[n])\n    (module, version) = serialize('\\nmodule @jit_f.0 {\\n  func.func public @main(%arg0: tensor<3xf32>, %arg1: tensor<4xf64>) -> (tensor<3xf32>, tensor<4xf64>) {\\n    %0 = stablehlo.sine %arg0 : tensor<3xf32>\\n    %1 = stablehlo.cosine %arg1 : tensor<4xf64>\\n    return %0, %1 : tensor<3xf32>, tensor<4xf64>\\n  }\\n}\\n')\n    return xla.call_module([x, y], version=version, module=module, Tout=[x.dtype, y.dtype], Sout=[x.shape, y.shape], platforms=[self.testing_platform()])",
            "def f(x, y):\n    if False:\n        i = 10\n        while True:\n            print('Mutation')\n        n = 10\n        dp = [0, 1]\n        for i in range(2, n + 1):\n            dp.append(dp[i - 1] + dp[i - 2])\n        print(dp[n])\n\n        def dfs(node):\n            if node == None:\n                return []\n            left = dfs(node.left)\n            right = dfs(node.right)\n    (module, version) = serialize('\\nmodule @jit_f.0 {\\n  func.func public @main(%arg0: tensor<3xf32>, %arg1: tensor<4xf64>) -> (tensor<3xf32>, tensor<4xf64>) {\\n    %0 = stablehlo.sine %arg0 : tensor<3xf32>\\n    %1 = stablehlo.cosine %arg1 : tensor<4xf64>\\n    return %0, %1 : tensor<3xf32>, tensor<4xf64>\\n  }\\n}\\n')\n    return xla.call_module([x, y], version=version, module=module, Tout=[x.dtype, y.dtype], Sout=[x.shape, y.shape], platforms=[self.testing_platform()])",
            "def f(x, y):\n    if False:\n        i = 10\n        while True:\n            print('Mutation')\n        dp = [0, 1]\n        for i in range(2, n + 1):\n            dp.append(dp[i - 1] + dp[i - 2])\n        print(dp[n])\n\n        def dfs(node):\n            if node == None:\n                return []\n            left = dfs(node.left)\n            right = dfs(node.right)\n        length = 15\n        if length <= 0:\n            return []\n        elif length == 1:\n            return [0]\n        sequence = [0, 1]\n        while len(sequence) < length:\n            next_value = sequence[-1] + sequence[-2]\n            sequence.append(next_value)\n        return sequence\n    (module, version) = serialize('\\nmodule @jit_f.0 {\\n  func.func public @main(%arg0: tensor<3xf32>, %arg1: tensor<4xf64>) -> (tensor<3xf32>, tensor<4xf64>) {\\n    %0 = stablehlo.sine %arg0 : tensor<3xf32>\\n    %1 = stablehlo.cosine %arg1 : tensor<4xf64>\\n    return %0, %1 : tensor<3xf32>, tensor<4xf64>\\n  }\\n}\\n')\n    return xla.call_module([x, y], version=version, module=module, Tout=[x.dtype, y.dtype], Sout=[x.shape, y.shape], platforms=[self.testing_platform()])"
        ]
    },
    {
        "func_name": "test_multiple_args_results",
        "original": "def test_multiple_args_results(self):\n    x = np.array([1.0, 2.0, 3.0], dtype=np.float32)\n    y = np.array([11.0, 12.0, 13.0, 14.0], dtype=np.float64)\n\n    def f(x, y):\n        (module, version) = serialize('\\nmodule @jit_f.0 {\\n  func.func public @main(%arg0: tensor<3xf32>, %arg1: tensor<4xf64>) -> (tensor<3xf32>, tensor<4xf64>) {\\n    %0 = stablehlo.sine %arg0 : tensor<3xf32>\\n    %1 = stablehlo.cosine %arg1 : tensor<4xf64>\\n    return %0, %1 : tensor<3xf32>, tensor<4xf64>\\n  }\\n}\\n')\n        return xla.call_module([x, y], version=version, module=module, Tout=[x.dtype, y.dtype], Sout=[x.shape, y.shape], platforms=[self.testing_platform()])\n    self._assertOpOutputMatchesExpected(f, (x, y), (np.sin(x), np.cos(y)))",
        "mutated": [
            "def test_multiple_args_results(self):\n    if False:\n        i = 10\n    x = np.array([1.0, 2.0, 3.0], dtype=np.float32)\n    y = np.array([11.0, 12.0, 13.0, 14.0], dtype=np.float64)\n\n    def f(x, y):\n        (module, version) = serialize('\\nmodule @jit_f.0 {\\n  func.func public @main(%arg0: tensor<3xf32>, %arg1: tensor<4xf64>) -> (tensor<3xf32>, tensor<4xf64>) {\\n    %0 = stablehlo.sine %arg0 : tensor<3xf32>\\n    %1 = stablehlo.cosine %arg1 : tensor<4xf64>\\n    return %0, %1 : tensor<3xf32>, tensor<4xf64>\\n  }\\n}\\n')\n        return xla.call_module([x, y], version=version, module=module, Tout=[x.dtype, y.dtype], Sout=[x.shape, y.shape], platforms=[self.testing_platform()])\n    self._assertOpOutputMatchesExpected(f, (x, y), (np.sin(x), np.cos(y)))",
            "def test_multiple_args_results(self):\n    if False:\n        i = 10\n        while True:\n            print('Mutation')\n    x = np.array([1.0, 2.0, 3.0], dtype=np.float32)\n    y = np.array([11.0, 12.0, 13.0, 14.0], dtype=np.float64)\n\n    def f(x, y):\n        (module, version) = serialize('\\nmodule @jit_f.0 {\\n  func.func public @main(%arg0: tensor<3xf32>, %arg1: tensor<4xf64>) -> (tensor<3xf32>, tensor<4xf64>) {\\n    %0 = stablehlo.sine %arg0 : tensor<3xf32>\\n    %1 = stablehlo.cosine %arg1 : tensor<4xf64>\\n    return %0, %1 : tensor<3xf32>, tensor<4xf64>\\n  }\\n}\\n')\n        return xla.call_module([x, y], version=version, module=module, Tout=[x.dtype, y.dtype], Sout=[x.shape, y.shape], platforms=[self.testing_platform()])\n    self._assertOpOutputMatchesExpected(f, (x, y), (np.sin(x), np.cos(y)))",
            "def test_multiple_args_results(self):\n    if False:\n        i = 10\n        while True:\n            print('Mutation')\n        n = 10\n        dp = [0, 1]\n        for i in range(2, n + 1):\n            dp.append(dp[i - 1] + dp[i - 2])\n        print(dp[n])\n    x = np.array([1.0, 2.0, 3.0], dtype=np.float32)\n    y = np.array([11.0, 12.0, 13.0, 14.0], dtype=np.float64)\n\n    def f(x, y):\n        (module, version) = serialize('\\nmodule @jit_f.0 {\\n  func.func public @main(%arg0: tensor<3xf32>, %arg1: tensor<4xf64>) -> (tensor<3xf32>, tensor<4xf64>) {\\n    %0 = stablehlo.sine %arg0 : tensor<3xf32>\\n    %1 = stablehlo.cosine %arg1 : tensor<4xf64>\\n    return %0, %1 : tensor<3xf32>, tensor<4xf64>\\n  }\\n}\\n')\n        return xla.call_module([x, y], version=version, module=module, Tout=[x.dtype, y.dtype], Sout=[x.shape, y.shape], platforms=[self.testing_platform()])\n    self._assertOpOutputMatchesExpected(f, (x, y), (np.sin(x), np.cos(y)))",
            "def test_multiple_args_results(self):\n    if False:\n        i = 10\n        while True:\n            print('Mutation')\n        n = 10\n        dp = [0, 1]\n        for i in range(2, n + 1):\n            dp.append(dp[i - 1] + dp[i - 2])\n        print(dp[n])\n\n        def dfs(node):\n            if node == None:\n                return []\n            left = dfs(node.left)\n            right = dfs(node.right)\n    x = np.array([1.0, 2.0, 3.0], dtype=np.float32)\n    y = np.array([11.0, 12.0, 13.0, 14.0], dtype=np.float64)\n\n    def f(x, y):\n        (module, version) = serialize('\\nmodule @jit_f.0 {\\n  func.func public @main(%arg0: tensor<3xf32>, %arg1: tensor<4xf64>) -> (tensor<3xf32>, tensor<4xf64>) {\\n    %0 = stablehlo.sine %arg0 : tensor<3xf32>\\n    %1 = stablehlo.cosine %arg1 : tensor<4xf64>\\n    return %0, %1 : tensor<3xf32>, tensor<4xf64>\\n  }\\n}\\n')\n        return xla.call_module([x, y], version=version, module=module, Tout=[x.dtype, y.dtype], Sout=[x.shape, y.shape], platforms=[self.testing_platform()])\n    self._assertOpOutputMatchesExpected(f, (x, y), (np.sin(x), np.cos(y)))",
            "def test_multiple_args_results(self):\n    if False:\n        i = 10\n        while True:\n            print('Mutation')\n        dp = [0, 1]\n        for i in range(2, n + 1):\n            dp.append(dp[i - 1] + dp[i - 2])\n        print(dp[n])\n\n        def dfs(node):\n            if node == None:\n                return []\n            left = dfs(node.left)\n            right = dfs(node.right)\n        length = 15\n        if length <= 0:\n            return []\n        elif length == 1:\n            return [0]\n        sequence = [0, 1]\n        while len(sequence) < length:\n            next_value = sequence[-1] + sequence[-2]\n            sequence.append(next_value)\n        return sequence\n    x = np.array([1.0, 2.0, 3.0], dtype=np.float32)\n    y = np.array([11.0, 12.0, 13.0, 14.0], dtype=np.float64)\n\n    def f(x, y):\n        (module, version) = serialize('\\nmodule @jit_f.0 {\\n  func.func public @main(%arg0: tensor<3xf32>, %arg1: tensor<4xf64>) -> (tensor<3xf32>, tensor<4xf64>) {\\n    %0 = stablehlo.sine %arg0 : tensor<3xf32>\\n    %1 = stablehlo.cosine %arg1 : tensor<4xf64>\\n    return %0, %1 : tensor<3xf32>, tensor<4xf64>\\n  }\\n}\\n')\n        return xla.call_module([x, y], version=version, module=module, Tout=[x.dtype, y.dtype], Sout=[x.shape, y.shape], platforms=[self.testing_platform()])\n    self._assertOpOutputMatchesExpected(f, (x, y), (np.sin(x), np.cos(y)))"
        ]
    },
    {
        "func_name": "f",
        "original": "def f(x):\n    (module, version) = serialize(f'\\nmodule @jit_f.0 attributes {{jax.uses_shape_polymorphism = true}} {{\\n  func.func public @main(%arg1: tensor<2x?xf32>) -> (tensor<2x?xf32>, tensor<{dim_var_type}>) {{\\n    %arg0_new_i32 = \"stablehlo.get_dimension_size\"(%arg1) {{dimension = 1 : i64}} : (tensor<2x?xf32>) -> tensor<i32>\\n    %arg0_new = stablehlo.convert %arg0_new_i32 : (tensor<i32>) -> tensor<{dim_var_type}>\\n    %0, %1 = call @dyn_main(%arg0_new, %arg1) : (tensor<{dim_var_type}>, tensor<2x?xf32>) -> (tensor<2x?xf32>, tensor<{dim_var_type}>)\\n    return %0, %1 : tensor<2x?xf32>, tensor<{dim_var_type}>\\n  }}\\n  func.func private @dyn_main(%arg0: tensor<{dim_var_type}> {{jax.global_constant = \"b\"}}, %arg1: tensor<2x?xf32>) -> (tensor<2x?xf32>, tensor<{dim_var_type}>) {{\\n    %0 = stablehlo.sine %arg1 : tensor<2x?xf32>\\n    return %0, %arg0 : tensor<2x?xf32>, tensor<{dim_var_type}>\\n  }}\\n}}\\n')\n    return xla.call_module([x], module=module, version=version, Tout=[x.dtype, np.int32], Sout=[(None, 3), ()], platforms=[self.testing_platform()])",
        "mutated": [
            "def f(x):\n    if False:\n        i = 10\n    (module, version) = serialize(f'\\nmodule @jit_f.0 attributes {{jax.uses_shape_polymorphism = true}} {{\\n  func.func public @main(%arg1: tensor<2x?xf32>) -> (tensor<2x?xf32>, tensor<{dim_var_type}>) {{\\n    %arg0_new_i32 = \"stablehlo.get_dimension_size\"(%arg1) {{dimension = 1 : i64}} : (tensor<2x?xf32>) -> tensor<i32>\\n    %arg0_new = stablehlo.convert %arg0_new_i32 : (tensor<i32>) -> tensor<{dim_var_type}>\\n    %0, %1 = call @dyn_main(%arg0_new, %arg1) : (tensor<{dim_var_type}>, tensor<2x?xf32>) -> (tensor<2x?xf32>, tensor<{dim_var_type}>)\\n    return %0, %1 : tensor<2x?xf32>, tensor<{dim_var_type}>\\n  }}\\n  func.func private @dyn_main(%arg0: tensor<{dim_var_type}> {{jax.global_constant = \"b\"}}, %arg1: tensor<2x?xf32>) -> (tensor<2x?xf32>, tensor<{dim_var_type}>) {{\\n    %0 = stablehlo.sine %arg1 : tensor<2x?xf32>\\n    return %0, %arg0 : tensor<2x?xf32>, tensor<{dim_var_type}>\\n  }}\\n}}\\n')\n    return xla.call_module([x], module=module, version=version, Tout=[x.dtype, np.int32], Sout=[(None, 3), ()], platforms=[self.testing_platform()])",
            "def f(x):\n    if False:\n        i = 10\n        while True:\n            print('Mutation')\n    (module, version) = serialize(f'\\nmodule @jit_f.0 attributes {{jax.uses_shape_polymorphism = true}} {{\\n  func.func public @main(%arg1: tensor<2x?xf32>) -> (tensor<2x?xf32>, tensor<{dim_var_type}>) {{\\n    %arg0_new_i32 = \"stablehlo.get_dimension_size\"(%arg1) {{dimension = 1 : i64}} : (tensor<2x?xf32>) -> tensor<i32>\\n    %arg0_new = stablehlo.convert %arg0_new_i32 : (tensor<i32>) -> tensor<{dim_var_type}>\\n    %0, %1 = call @dyn_main(%arg0_new, %arg1) : (tensor<{dim_var_type}>, tensor<2x?xf32>) -> (tensor<2x?xf32>, tensor<{dim_var_type}>)\\n    return %0, %1 : tensor<2x?xf32>, tensor<{dim_var_type}>\\n  }}\\n  func.func private @dyn_main(%arg0: tensor<{dim_var_type}> {{jax.global_constant = \"b\"}}, %arg1: tensor<2x?xf32>) -> (tensor<2x?xf32>, tensor<{dim_var_type}>) {{\\n    %0 = stablehlo.sine %arg1 : tensor<2x?xf32>\\n    return %0, %arg0 : tensor<2x?xf32>, tensor<{dim_var_type}>\\n  }}\\n}}\\n')\n    return xla.call_module([x], module=module, version=version, Tout=[x.dtype, np.int32], Sout=[(None, 3), ()], platforms=[self.testing_platform()])",
            "def f(x):\n    if False:\n        i = 10\n        while True:\n            print('Mutation')\n        n = 10\n        dp = [0, 1]\n        for i in range(2, n + 1):\n            dp.append(dp[i - 1] + dp[i - 2])\n        print(dp[n])\n    (module, version) = serialize(f'\\nmodule @jit_f.0 attributes {{jax.uses_shape_polymorphism = true}} {{\\n  func.func public @main(%arg1: tensor<2x?xf32>) -> (tensor<2x?xf32>, tensor<{dim_var_type}>) {{\\n    %arg0_new_i32 = \"stablehlo.get_dimension_size\"(%arg1) {{dimension = 1 : i64}} : (tensor<2x?xf32>) -> tensor<i32>\\n    %arg0_new = stablehlo.convert %arg0_new_i32 : (tensor<i32>) -> tensor<{dim_var_type}>\\n    %0, %1 = call @dyn_main(%arg0_new, %arg1) : (tensor<{dim_var_type}>, tensor<2x?xf32>) -> (tensor<2x?xf32>, tensor<{dim_var_type}>)\\n    return %0, %1 : tensor<2x?xf32>, tensor<{dim_var_type}>\\n  }}\\n  func.func private @dyn_main(%arg0: tensor<{dim_var_type}> {{jax.global_constant = \"b\"}}, %arg1: tensor<2x?xf32>) -> (tensor<2x?xf32>, tensor<{dim_var_type}>) {{\\n    %0 = stablehlo.sine %arg1 : tensor<2x?xf32>\\n    return %0, %arg0 : tensor<2x?xf32>, tensor<{dim_var_type}>\\n  }}\\n}}\\n')\n    return xla.call_module([x], module=module, version=version, Tout=[x.dtype, np.int32], Sout=[(None, 3), ()], platforms=[self.testing_platform()])",
            "def f(x):\n    if False:\n        i = 10\n        while True:\n            print('Mutation')\n        n = 10\n        dp = [0, 1]\n        for i in range(2, n + 1):\n            dp.append(dp[i - 1] + dp[i - 2])\n        print(dp[n])\n\n        def dfs(node):\n            if node == None:\n                return []\n            left = dfs(node.left)\n            right = dfs(node.right)\n    (module, version) = serialize(f'\\nmodule @jit_f.0 attributes {{jax.uses_shape_polymorphism = true}} {{\\n  func.func public @main(%arg1: tensor<2x?xf32>) -> (tensor<2x?xf32>, tensor<{dim_var_type}>) {{\\n    %arg0_new_i32 = \"stablehlo.get_dimension_size\"(%arg1) {{dimension = 1 : i64}} : (tensor<2x?xf32>) -> tensor<i32>\\n    %arg0_new = stablehlo.convert %arg0_new_i32 : (tensor<i32>) -> tensor<{dim_var_type}>\\n    %0, %1 = call @dyn_main(%arg0_new, %arg1) : (tensor<{dim_var_type}>, tensor<2x?xf32>) -> (tensor<2x?xf32>, tensor<{dim_var_type}>)\\n    return %0, %1 : tensor<2x?xf32>, tensor<{dim_var_type}>\\n  }}\\n  func.func private @dyn_main(%arg0: tensor<{dim_var_type}> {{jax.global_constant = \"b\"}}, %arg1: tensor<2x?xf32>) -> (tensor<2x?xf32>, tensor<{dim_var_type}>) {{\\n    %0 = stablehlo.sine %arg1 : tensor<2x?xf32>\\n    return %0, %arg0 : tensor<2x?xf32>, tensor<{dim_var_type}>\\n  }}\\n}}\\n')\n    return xla.call_module([x], module=module, version=version, Tout=[x.dtype, np.int32], Sout=[(None, 3), ()], platforms=[self.testing_platform()])",
            "def f(x):\n    if False:\n        i = 10\n        while True:\n            print('Mutation')\n        dp = [0, 1]\n        for i in range(2, n + 1):\n            dp.append(dp[i - 1] + dp[i - 2])\n        print(dp[n])\n\n        def dfs(node):\n            if node == None:\n                return []\n            left = dfs(node.left)\n            right = dfs(node.right)\n        length = 15\n        if length <= 0:\n            return []\n        elif length == 1:\n            return [0]\n        sequence = [0, 1]\n        while len(sequence) < length:\n            next_value = sequence[-1] + sequence[-2]\n            sequence.append(next_value)\n        return sequence\n    (module, version) = serialize(f'\\nmodule @jit_f.0 attributes {{jax.uses_shape_polymorphism = true}} {{\\n  func.func public @main(%arg1: tensor<2x?xf32>) -> (tensor<2x?xf32>, tensor<{dim_var_type}>) {{\\n    %arg0_new_i32 = \"stablehlo.get_dimension_size\"(%arg1) {{dimension = 1 : i64}} : (tensor<2x?xf32>) -> tensor<i32>\\n    %arg0_new = stablehlo.convert %arg0_new_i32 : (tensor<i32>) -> tensor<{dim_var_type}>\\n    %0, %1 = call @dyn_main(%arg0_new, %arg1) : (tensor<{dim_var_type}>, tensor<2x?xf32>) -> (tensor<2x?xf32>, tensor<{dim_var_type}>)\\n    return %0, %1 : tensor<2x?xf32>, tensor<{dim_var_type}>\\n  }}\\n  func.func private @dyn_main(%arg0: tensor<{dim_var_type}> {{jax.global_constant = \"b\"}}, %arg1: tensor<2x?xf32>) -> (tensor<2x?xf32>, tensor<{dim_var_type}>) {{\\n    %0 = stablehlo.sine %arg1 : tensor<2x?xf32>\\n    return %0, %arg0 : tensor<2x?xf32>, tensor<{dim_var_type}>\\n  }}\\n}}\\n')\n    return xla.call_module([x], module=module, version=version, Tout=[x.dtype, np.int32], Sout=[(None, 3), ()], platforms=[self.testing_platform()])"
        ]
    },
    {
        "func_name": "test_poly_basic",
        "original": "@parameterized.named_parameters((dict(testcase_name='_' + dim_var_type, dim_var_type=dim_var_type) for dim_var_type in ('i32',)))\ndef test_poly_basic(self, *, dim_var_type: str):\n    x = np.arange(6, dtype=np.float32).reshape((2, 3))\n\n    def f(x):\n        (module, version) = serialize(f'\\nmodule @jit_f.0 attributes {{jax.uses_shape_polymorphism = true}} {{\\n  func.func public @main(%arg1: tensor<2x?xf32>) -> (tensor<2x?xf32>, tensor<{dim_var_type}>) {{\\n    %arg0_new_i32 = \"stablehlo.get_dimension_size\"(%arg1) {{dimension = 1 : i64}} : (tensor<2x?xf32>) -> tensor<i32>\\n    %arg0_new = stablehlo.convert %arg0_new_i32 : (tensor<i32>) -> tensor<{dim_var_type}>\\n    %0, %1 = call @dyn_main(%arg0_new, %arg1) : (tensor<{dim_var_type}>, tensor<2x?xf32>) -> (tensor<2x?xf32>, tensor<{dim_var_type}>)\\n    return %0, %1 : tensor<2x?xf32>, tensor<{dim_var_type}>\\n  }}\\n  func.func private @dyn_main(%arg0: tensor<{dim_var_type}> {{jax.global_constant = \"b\"}}, %arg1: tensor<2x?xf32>) -> (tensor<2x?xf32>, tensor<{dim_var_type}>) {{\\n    %0 = stablehlo.sine %arg1 : tensor<2x?xf32>\\n    return %0, %arg0 : tensor<2x?xf32>, tensor<{dim_var_type}>\\n  }}\\n}}\\n')\n        return xla.call_module([x], module=module, version=version, Tout=[x.dtype, np.int32], Sout=[(None, 3), ()], platforms=[self.testing_platform()])\n    self._assertOpOutputMatchesExpected(f, (x,), (np.sin(x), x.shape[1]))",
        "mutated": [
            "@parameterized.named_parameters((dict(testcase_name='_' + dim_var_type, dim_var_type=dim_var_type) for dim_var_type in ('i32',)))\ndef test_poly_basic(self, *, dim_var_type: str):\n    if False:\n        i = 10\n    x = np.arange(6, dtype=np.float32).reshape((2, 3))\n\n    def f(x):\n        (module, version) = serialize(f'\\nmodule @jit_f.0 attributes {{jax.uses_shape_polymorphism = true}} {{\\n  func.func public @main(%arg1: tensor<2x?xf32>) -> (tensor<2x?xf32>, tensor<{dim_var_type}>) {{\\n    %arg0_new_i32 = \"stablehlo.get_dimension_size\"(%arg1) {{dimension = 1 : i64}} : (tensor<2x?xf32>) -> tensor<i32>\\n    %arg0_new = stablehlo.convert %arg0_new_i32 : (tensor<i32>) -> tensor<{dim_var_type}>\\n    %0, %1 = call @dyn_main(%arg0_new, %arg1) : (tensor<{dim_var_type}>, tensor<2x?xf32>) -> (tensor<2x?xf32>, tensor<{dim_var_type}>)\\n    return %0, %1 : tensor<2x?xf32>, tensor<{dim_var_type}>\\n  }}\\n  func.func private @dyn_main(%arg0: tensor<{dim_var_type}> {{jax.global_constant = \"b\"}}, %arg1: tensor<2x?xf32>) -> (tensor<2x?xf32>, tensor<{dim_var_type}>) {{\\n    %0 = stablehlo.sine %arg1 : tensor<2x?xf32>\\n    return %0, %arg0 : tensor<2x?xf32>, tensor<{dim_var_type}>\\n  }}\\n}}\\n')\n        return xla.call_module([x], module=module, version=version, Tout=[x.dtype, np.int32], Sout=[(None, 3), ()], platforms=[self.testing_platform()])\n    self._assertOpOutputMatchesExpected(f, (x,), (np.sin(x), x.shape[1]))",
            "@parameterized.named_parameters((dict(testcase_name='_' + dim_var_type, dim_var_type=dim_var_type) for dim_var_type in ('i32',)))\ndef test_poly_basic(self, *, dim_var_type: str):\n    if False:\n        i = 10\n        while True:\n            print('Mutation')\n    x = np.arange(6, dtype=np.float32).reshape((2, 3))\n\n    def f(x):\n        (module, version) = serialize(f'\\nmodule @jit_f.0 attributes {{jax.uses_shape_polymorphism = true}} {{\\n  func.func public @main(%arg1: tensor<2x?xf32>) -> (tensor<2x?xf32>, tensor<{dim_var_type}>) {{\\n    %arg0_new_i32 = \"stablehlo.get_dimension_size\"(%arg1) {{dimension = 1 : i64}} : (tensor<2x?xf32>) -> tensor<i32>\\n    %arg0_new = stablehlo.convert %arg0_new_i32 : (tensor<i32>) -> tensor<{dim_var_type}>\\n    %0, %1 = call @dyn_main(%arg0_new, %arg1) : (tensor<{dim_var_type}>, tensor<2x?xf32>) -> (tensor<2x?xf32>, tensor<{dim_var_type}>)\\n    return %0, %1 : tensor<2x?xf32>, tensor<{dim_var_type}>\\n  }}\\n  func.func private @dyn_main(%arg0: tensor<{dim_var_type}> {{jax.global_constant = \"b\"}}, %arg1: tensor<2x?xf32>) -> (tensor<2x?xf32>, tensor<{dim_var_type}>) {{\\n    %0 = stablehlo.sine %arg1 : tensor<2x?xf32>\\n    return %0, %arg0 : tensor<2x?xf32>, tensor<{dim_var_type}>\\n  }}\\n}}\\n')\n        return xla.call_module([x], module=module, version=version, Tout=[x.dtype, np.int32], Sout=[(None, 3), ()], platforms=[self.testing_platform()])\n    self._assertOpOutputMatchesExpected(f, (x,), (np.sin(x), x.shape[1]))",
            "@parameterized.named_parameters((dict(testcase_name='_' + dim_var_type, dim_var_type=dim_var_type) for dim_var_type in ('i32',)))\ndef test_poly_basic(self, *, dim_var_type: str):\n    if False:\n        i = 10\n        while True:\n            print('Mutation')\n        n = 10\n        dp = [0, 1]\n        for i in range(2, n + 1):\n            dp.append(dp[i - 1] + dp[i - 2])\n        print(dp[n])\n    x = np.arange(6, dtype=np.float32).reshape((2, 3))\n\n    def f(x):\n        (module, version) = serialize(f'\\nmodule @jit_f.0 attributes {{jax.uses_shape_polymorphism = true}} {{\\n  func.func public @main(%arg1: tensor<2x?xf32>) -> (tensor<2x?xf32>, tensor<{dim_var_type}>) {{\\n    %arg0_new_i32 = \"stablehlo.get_dimension_size\"(%arg1) {{dimension = 1 : i64}} : (tensor<2x?xf32>) -> tensor<i32>\\n    %arg0_new = stablehlo.convert %arg0_new_i32 : (tensor<i32>) -> tensor<{dim_var_type}>\\n    %0, %1 = call @dyn_main(%arg0_new, %arg1) : (tensor<{dim_var_type}>, tensor<2x?xf32>) -> (tensor<2x?xf32>, tensor<{dim_var_type}>)\\n    return %0, %1 : tensor<2x?xf32>, tensor<{dim_var_type}>\\n  }}\\n  func.func private @dyn_main(%arg0: tensor<{dim_var_type}> {{jax.global_constant = \"b\"}}, %arg1: tensor<2x?xf32>) -> (tensor<2x?xf32>, tensor<{dim_var_type}>) {{\\n    %0 = stablehlo.sine %arg1 : tensor<2x?xf32>\\n    return %0, %arg0 : tensor<2x?xf32>, tensor<{dim_var_type}>\\n  }}\\n}}\\n')\n        return xla.call_module([x], module=module, version=version, Tout=[x.dtype, np.int32], Sout=[(None, 3), ()], platforms=[self.testing_platform()])\n    self._assertOpOutputMatchesExpected(f, (x,), (np.sin(x), x.shape[1]))",
            "@parameterized.named_parameters((dict(testcase_name='_' + dim_var_type, dim_var_type=dim_var_type) for dim_var_type in ('i32',)))\ndef test_poly_basic(self, *, dim_var_type: str):\n    if False:\n        i = 10\n        while True:\n            print('Mutation')\n        n = 10\n        dp = [0, 1]\n        for i in range(2, n + 1):\n            dp.append(dp[i - 1] + dp[i - 2])\n        print(dp[n])\n\n        def dfs(node):\n            if node == None:\n                return []\n            left = dfs(node.left)\n            right = dfs(node.right)\n    x = np.arange(6, dtype=np.float32).reshape((2, 3))\n\n    def f(x):\n        (module, version) = serialize(f'\\nmodule @jit_f.0 attributes {{jax.uses_shape_polymorphism = true}} {{\\n  func.func public @main(%arg1: tensor<2x?xf32>) -> (tensor<2x?xf32>, tensor<{dim_var_type}>) {{\\n    %arg0_new_i32 = \"stablehlo.get_dimension_size\"(%arg1) {{dimension = 1 : i64}} : (tensor<2x?xf32>) -> tensor<i32>\\n    %arg0_new = stablehlo.convert %arg0_new_i32 : (tensor<i32>) -> tensor<{dim_var_type}>\\n    %0, %1 = call @dyn_main(%arg0_new, %arg1) : (tensor<{dim_var_type}>, tensor<2x?xf32>) -> (tensor<2x?xf32>, tensor<{dim_var_type}>)\\n    return %0, %1 : tensor<2x?xf32>, tensor<{dim_var_type}>\\n  }}\\n  func.func private @dyn_main(%arg0: tensor<{dim_var_type}> {{jax.global_constant = \"b\"}}, %arg1: tensor<2x?xf32>) -> (tensor<2x?xf32>, tensor<{dim_var_type}>) {{\\n    %0 = stablehlo.sine %arg1 : tensor<2x?xf32>\\n    return %0, %arg0 : tensor<2x?xf32>, tensor<{dim_var_type}>\\n  }}\\n}}\\n')\n        return xla.call_module([x], module=module, version=version, Tout=[x.dtype, np.int32], Sout=[(None, 3), ()], platforms=[self.testing_platform()])\n    self._assertOpOutputMatchesExpected(f, (x,), (np.sin(x), x.shape[1]))",
            "@parameterized.named_parameters((dict(testcase_name='_' + dim_var_type, dim_var_type=dim_var_type) for dim_var_type in ('i32',)))\ndef test_poly_basic(self, *, dim_var_type: str):\n    if False:\n        i = 10\n        while True:\n            print('Mutation')\n        dp = [0, 1]\n        for i in range(2, n + 1):\n            dp.append(dp[i - 1] + dp[i - 2])\n        print(dp[n])\n\n        def dfs(node):\n            if node == None:\n                return []\n            left = dfs(node.left)\n            right = dfs(node.right)\n        length = 15\n        if length <= 0:\n            return []\n        elif length == 1:\n            return [0]\n        sequence = [0, 1]\n        while len(sequence) < length:\n            next_value = sequence[-1] + sequence[-2]\n            sequence.append(next_value)\n        return sequence\n    x = np.arange(6, dtype=np.float32).reshape((2, 3))\n\n    def f(x):\n        (module, version) = serialize(f'\\nmodule @jit_f.0 attributes {{jax.uses_shape_polymorphism = true}} {{\\n  func.func public @main(%arg1: tensor<2x?xf32>) -> (tensor<2x?xf32>, tensor<{dim_var_type}>) {{\\n    %arg0_new_i32 = \"stablehlo.get_dimension_size\"(%arg1) {{dimension = 1 : i64}} : (tensor<2x?xf32>) -> tensor<i32>\\n    %arg0_new = stablehlo.convert %arg0_new_i32 : (tensor<i32>) -> tensor<{dim_var_type}>\\n    %0, %1 = call @dyn_main(%arg0_new, %arg1) : (tensor<{dim_var_type}>, tensor<2x?xf32>) -> (tensor<2x?xf32>, tensor<{dim_var_type}>)\\n    return %0, %1 : tensor<2x?xf32>, tensor<{dim_var_type}>\\n  }}\\n  func.func private @dyn_main(%arg0: tensor<{dim_var_type}> {{jax.global_constant = \"b\"}}, %arg1: tensor<2x?xf32>) -> (tensor<2x?xf32>, tensor<{dim_var_type}>) {{\\n    %0 = stablehlo.sine %arg1 : tensor<2x?xf32>\\n    return %0, %arg0 : tensor<2x?xf32>, tensor<{dim_var_type}>\\n  }}\\n}}\\n')\n        return xla.call_module([x], module=module, version=version, Tout=[x.dtype, np.int32], Sout=[(None, 3), ()], platforms=[self.testing_platform()])\n    self._assertOpOutputMatchesExpected(f, (x,), (np.sin(x), x.shape[1]))"
        ]
    },
    {
        "func_name": "f",
        "original": "def f(x):\n    (module, version) = serialize('\\nmodule @jit_f.0 attributes {jax.uses_shape_polymorphism = true} {\\n  func.func public @main(%arg1: tensor<*xf32>) -> tensor<*xf32> {\\n    %0 = stablehlo.sine %arg1 : tensor<*xf32>\\n    return %0 : tensor<*xf32>\\n  }\\n}\\n')\n    return xla.call_module([x], module=module, version=version, Tout=[x.dtype], Sout=[(None, None)], platforms=[self.testing_platform()])",
        "mutated": [
            "def f(x):\n    if False:\n        i = 10\n    (module, version) = serialize('\\nmodule @jit_f.0 attributes {jax.uses_shape_polymorphism = true} {\\n  func.func public @main(%arg1: tensor<*xf32>) -> tensor<*xf32> {\\n    %0 = stablehlo.sine %arg1 : tensor<*xf32>\\n    return %0 : tensor<*xf32>\\n  }\\n}\\n')\n    return xla.call_module([x], module=module, version=version, Tout=[x.dtype], Sout=[(None, None)], platforms=[self.testing_platform()])",
            "def f(x):\n    if False:\n        i = 10\n        while True:\n            print('Mutation')\n    (module, version) = serialize('\\nmodule @jit_f.0 attributes {jax.uses_shape_polymorphism = true} {\\n  func.func public @main(%arg1: tensor<*xf32>) -> tensor<*xf32> {\\n    %0 = stablehlo.sine %arg1 : tensor<*xf32>\\n    return %0 : tensor<*xf32>\\n  }\\n}\\n')\n    return xla.call_module([x], module=module, version=version, Tout=[x.dtype], Sout=[(None, None)], platforms=[self.testing_platform()])",
            "def f(x):\n    if False:\n        i = 10\n        while True:\n            print('Mutation')\n        n = 10\n        dp = [0, 1]\n        for i in range(2, n + 1):\n            dp.append(dp[i - 1] + dp[i - 2])\n        print(dp[n])\n    (module, version) = serialize('\\nmodule @jit_f.0 attributes {jax.uses_shape_polymorphism = true} {\\n  func.func public @main(%arg1: tensor<*xf32>) -> tensor<*xf32> {\\n    %0 = stablehlo.sine %arg1 : tensor<*xf32>\\n    return %0 : tensor<*xf32>\\n  }\\n}\\n')\n    return xla.call_module([x], module=module, version=version, Tout=[x.dtype], Sout=[(None, None)], platforms=[self.testing_platform()])",
            "def f(x):\n    if False:\n        i = 10\n        while True:\n            print('Mutation')\n        n = 10\n        dp = [0, 1]\n        for i in range(2, n + 1):\n            dp.append(dp[i - 1] + dp[i - 2])\n        print(dp[n])\n\n        def dfs(node):\n            if node == None:\n                return []\n            left = dfs(node.left)\n            right = dfs(node.right)\n    (module, version) = serialize('\\nmodule @jit_f.0 attributes {jax.uses_shape_polymorphism = true} {\\n  func.func public @main(%arg1: tensor<*xf32>) -> tensor<*xf32> {\\n    %0 = stablehlo.sine %arg1 : tensor<*xf32>\\n    return %0 : tensor<*xf32>\\n  }\\n}\\n')\n    return xla.call_module([x], module=module, version=version, Tout=[x.dtype], Sout=[(None, None)], platforms=[self.testing_platform()])",
            "def f(x):\n    if False:\n        i = 10\n        while True:\n            print('Mutation')\n        dp = [0, 1]\n        for i in range(2, n + 1):\n            dp.append(dp[i - 1] + dp[i - 2])\n        print(dp[n])\n\n        def dfs(node):\n            if node == None:\n                return []\n            left = dfs(node.left)\n            right = dfs(node.right)\n        length = 15\n        if length <= 0:\n            return []\n        elif length == 1:\n            return [0]\n        sequence = [0, 1]\n        while len(sequence) < length:\n            next_value = sequence[-1] + sequence[-2]\n            sequence.append(next_value)\n        return sequence\n    (module, version) = serialize('\\nmodule @jit_f.0 attributes {jax.uses_shape_polymorphism = true} {\\n  func.func public @main(%arg1: tensor<*xf32>) -> tensor<*xf32> {\\n    %0 = stablehlo.sine %arg1 : tensor<*xf32>\\n    return %0 : tensor<*xf32>\\n  }\\n}\\n')\n    return xla.call_module([x], module=module, version=version, Tout=[x.dtype], Sout=[(None, None)], platforms=[self.testing_platform()])"
        ]
    },
    {
        "func_name": "test_poly_unranked",
        "original": "def test_poly_unranked(self):\n    x = np.arange(6, dtype=np.float32).reshape((2, 3))\n\n    def f(x):\n        (module, version) = serialize('\\nmodule @jit_f.0 attributes {jax.uses_shape_polymorphism = true} {\\n  func.func public @main(%arg1: tensor<*xf32>) -> tensor<*xf32> {\\n    %0 = stablehlo.sine %arg1 : tensor<*xf32>\\n    return %0 : tensor<*xf32>\\n  }\\n}\\n')\n        return xla.call_module([x], module=module, version=version, Tout=[x.dtype], Sout=[(None, None)], platforms=[self.testing_platform()])\n    self._assertOpOutputMatchesExpected(f, (x,), (np.sin(x),))",
        "mutated": [
            "def test_poly_unranked(self):\n    if False:\n        i = 10\n    x = np.arange(6, dtype=np.float32).reshape((2, 3))\n\n    def f(x):\n        (module, version) = serialize('\\nmodule @jit_f.0 attributes {jax.uses_shape_polymorphism = true} {\\n  func.func public @main(%arg1: tensor<*xf32>) -> tensor<*xf32> {\\n    %0 = stablehlo.sine %arg1 : tensor<*xf32>\\n    return %0 : tensor<*xf32>\\n  }\\n}\\n')\n        return xla.call_module([x], module=module, version=version, Tout=[x.dtype], Sout=[(None, None)], platforms=[self.testing_platform()])\n    self._assertOpOutputMatchesExpected(f, (x,), (np.sin(x),))",
            "def test_poly_unranked(self):\n    if False:\n        i = 10\n        while True:\n            print('Mutation')\n    x = np.arange(6, dtype=np.float32).reshape((2, 3))\n\n    def f(x):\n        (module, version) = serialize('\\nmodule @jit_f.0 attributes {jax.uses_shape_polymorphism = true} {\\n  func.func public @main(%arg1: tensor<*xf32>) -> tensor<*xf32> {\\n    %0 = stablehlo.sine %arg1 : tensor<*xf32>\\n    return %0 : tensor<*xf32>\\n  }\\n}\\n')\n        return xla.call_module([x], module=module, version=version, Tout=[x.dtype], Sout=[(None, None)], platforms=[self.testing_platform()])\n    self._assertOpOutputMatchesExpected(f, (x,), (np.sin(x),))",
            "def test_poly_unranked(self):\n    if False:\n        i = 10\n        while True:\n            print('Mutation')\n        n = 10\n        dp = [0, 1]\n        for i in range(2, n + 1):\n            dp.append(dp[i - 1] + dp[i - 2])\n        print(dp[n])\n    x = np.arange(6, dtype=np.float32).reshape((2, 3))\n\n    def f(x):\n        (module, version) = serialize('\\nmodule @jit_f.0 attributes {jax.uses_shape_polymorphism = true} {\\n  func.func public @main(%arg1: tensor<*xf32>) -> tensor<*xf32> {\\n    %0 = stablehlo.sine %arg1 : tensor<*xf32>\\n    return %0 : tensor<*xf32>\\n  }\\n}\\n')\n        return xla.call_module([x], module=module, version=version, Tout=[x.dtype], Sout=[(None, None)], platforms=[self.testing_platform()])\n    self._assertOpOutputMatchesExpected(f, (x,), (np.sin(x),))",
            "def test_poly_unranked(self):\n    if False:\n        i = 10\n        while True:\n            print('Mutation')\n        n = 10\n        dp = [0, 1]\n        for i in range(2, n + 1):\n            dp.append(dp[i - 1] + dp[i - 2])\n        print(dp[n])\n\n        def dfs(node):\n            if node == None:\n                return []\n            left = dfs(node.left)\n            right = dfs(node.right)\n    x = np.arange(6, dtype=np.float32).reshape((2, 3))\n\n    def f(x):\n        (module, version) = serialize('\\nmodule @jit_f.0 attributes {jax.uses_shape_polymorphism = true} {\\n  func.func public @main(%arg1: tensor<*xf32>) -> tensor<*xf32> {\\n    %0 = stablehlo.sine %arg1 : tensor<*xf32>\\n    return %0 : tensor<*xf32>\\n  }\\n}\\n')\n        return xla.call_module([x], module=module, version=version, Tout=[x.dtype], Sout=[(None, None)], platforms=[self.testing_platform()])\n    self._assertOpOutputMatchesExpected(f, (x,), (np.sin(x),))",
            "def test_poly_unranked(self):\n    if False:\n        i = 10\n        while True:\n            print('Mutation')\n        dp = [0, 1]\n        for i in range(2, n + 1):\n            dp.append(dp[i - 1] + dp[i - 2])\n        print(dp[n])\n\n        def dfs(node):\n            if node == None:\n                return []\n            left = dfs(node.left)\n            right = dfs(node.right)\n        length = 15\n        if length <= 0:\n            return []\n        elif length == 1:\n            return [0]\n        sequence = [0, 1]\n        while len(sequence) < length:\n            next_value = sequence[-1] + sequence[-2]\n            sequence.append(next_value)\n        return sequence\n    x = np.arange(6, dtype=np.float32).reshape((2, 3))\n\n    def f(x):\n        (module, version) = serialize('\\nmodule @jit_f.0 attributes {jax.uses_shape_polymorphism = true} {\\n  func.func public @main(%arg1: tensor<*xf32>) -> tensor<*xf32> {\\n    %0 = stablehlo.sine %arg1 : tensor<*xf32>\\n    return %0 : tensor<*xf32>\\n  }\\n}\\n')\n        return xla.call_module([x], module=module, version=version, Tout=[x.dtype], Sout=[(None, None)], platforms=[self.testing_platform()])\n    self._assertOpOutputMatchesExpected(f, (x,), (np.sin(x),))"
        ]
    },
    {
        "func_name": "f",
        "original": "def f(x, y):\n    return xla.call_module([x, y], module=module, version=version, Tout=[x.dtype], Sout=[(None, 2)], platforms=[self.testing_platform()])",
        "mutated": [
            "def f(x, y):\n    if False:\n        i = 10\n    return xla.call_module([x, y], module=module, version=version, Tout=[x.dtype], Sout=[(None, 2)], platforms=[self.testing_platform()])",
            "def f(x, y):\n    if False:\n        i = 10\n        while True:\n            print('Mutation')\n    return xla.call_module([x, y], module=module, version=version, Tout=[x.dtype], Sout=[(None, 2)], platforms=[self.testing_platform()])",
            "def f(x, y):\n    if False:\n        i = 10\n        while True:\n            print('Mutation')\n        n = 10\n        dp = [0, 1]\n        for i in range(2, n + 1):\n            dp.append(dp[i - 1] + dp[i - 2])\n        print(dp[n])\n    return xla.call_module([x, y], module=module, version=version, Tout=[x.dtype], Sout=[(None, 2)], platforms=[self.testing_platform()])",
            "def f(x, y):\n    if False:\n        i = 10\n        while True:\n            print('Mutation')\n        n = 10\n        dp = [0, 1]\n        for i in range(2, n + 1):\n            dp.append(dp[i - 1] + dp[i - 2])\n        print(dp[n])\n\n        def dfs(node):\n            if node == None:\n                return []\n            left = dfs(node.left)\n            right = dfs(node.right)\n    return xla.call_module([x, y], module=module, version=version, Tout=[x.dtype], Sout=[(None, 2)], platforms=[self.testing_platform()])",
            "def f(x, y):\n    if False:\n        i = 10\n        while True:\n            print('Mutation')\n        dp = [0, 1]\n        for i in range(2, n + 1):\n            dp.append(dp[i - 1] + dp[i - 2])\n        print(dp[n])\n\n        def dfs(node):\n            if node == None:\n                return []\n            left = dfs(node.left)\n            right = dfs(node.right)\n        length = 15\n        if length <= 0:\n            return []\n        elif length == 1:\n            return [0]\n        sequence = [0, 1]\n        while len(sequence) < length:\n            next_value = sequence[-1] + sequence[-2]\n            sequence.append(next_value)\n        return sequence\n    return xla.call_module([x, y], module=module, version=version, Tout=[x.dtype], Sout=[(None, 2)], platforms=[self.testing_platform()])"
        ]
    },
    {
        "func_name": "test_wrong_actual_args_errors",
        "original": "def test_wrong_actual_args_errors(self):\n    x = np.arange(6, dtype=np.float32).reshape((3, 2))\n    y = np.arange(6, dtype=np.int32).reshape((2, 3))\n    (module, version) = serialize('\\nmodule @jit_f.0 attributes {jax.uses_shape_polymorphism = true} {\\n  func.func public @main(%arg0: tensor<?x2xf32>, %arg1: tensor<*xi32>) -> tensor<?x2xf32> {\\n    return %arg0 : tensor<?x2xf32>\\n  }\\n}\\n')\n\n    def f(x, y):\n        return xla.call_module([x, y], module=module, version=version, Tout=[x.dtype], Sout=[(None, 2)], platforms=[self.testing_platform()])\n    self._assertOpOutputMatchesExpected(f, (x, y), (x,))\n    x_bad_etype = x.astype(np.int32)\n    with self.assertRaisesRegex(errors.InvalidArgumentError, 'Element type mismatch for argument 0 passed to XlaCallModule: expecting tensor<\\\\?x2xf32>, got tensor<3x2xi32>'):\n        self._assertOpOutputMatchesExpected(f, (x_bad_etype, y), (x_bad_etype,))\n    y_bad_etype = y.astype(np.float32)\n    with self.assertRaisesRegex(errors.InvalidArgumentError, 'Element type mismatch for argument 1 passed to XlaCallModule: expecting tensor<\\\\*xi32>, got tensor<2x3xf32>'):\n        self._assertOpOutputMatchesExpected(f, (x, y_bad_etype), (x,))\n    x_bad_shape = np.arange(15, dtype=np.float32).reshape(5, 3)\n    with self.assertRaisesRegex(errors.InvalidArgumentError, 'Shape mismatch for argument 0 passed to XlaCallModule: expecting tensor<\\\\?x2xf32>, got tensor<5x3xf32>'):\n        self._assertOpOutputMatchesExpected(f, (x_bad_shape, y), (x_bad_shape,))",
        "mutated": [
            "def test_wrong_actual_args_errors(self):\n    if False:\n        i = 10\n    x = np.arange(6, dtype=np.float32).reshape((3, 2))\n    y = np.arange(6, dtype=np.int32).reshape((2, 3))\n    (module, version) = serialize('\\nmodule @jit_f.0 attributes {jax.uses_shape_polymorphism = true} {\\n  func.func public @main(%arg0: tensor<?x2xf32>, %arg1: tensor<*xi32>) -> tensor<?x2xf32> {\\n    return %arg0 : tensor<?x2xf32>\\n  }\\n}\\n')\n\n    def f(x, y):\n        return xla.call_module([x, y], module=module, version=version, Tout=[x.dtype], Sout=[(None, 2)], platforms=[self.testing_platform()])\n    self._assertOpOutputMatchesExpected(f, (x, y), (x,))\n    x_bad_etype = x.astype(np.int32)\n    with self.assertRaisesRegex(errors.InvalidArgumentError, 'Element type mismatch for argument 0 passed to XlaCallModule: expecting tensor<\\\\?x2xf32>, got tensor<3x2xi32>'):\n        self._assertOpOutputMatchesExpected(f, (x_bad_etype, y), (x_bad_etype,))\n    y_bad_etype = y.astype(np.float32)\n    with self.assertRaisesRegex(errors.InvalidArgumentError, 'Element type mismatch for argument 1 passed to XlaCallModule: expecting tensor<\\\\*xi32>, got tensor<2x3xf32>'):\n        self._assertOpOutputMatchesExpected(f, (x, y_bad_etype), (x,))\n    x_bad_shape = np.arange(15, dtype=np.float32).reshape(5, 3)\n    with self.assertRaisesRegex(errors.InvalidArgumentError, 'Shape mismatch for argument 0 passed to XlaCallModule: expecting tensor<\\\\?x2xf32>, got tensor<5x3xf32>'):\n        self._assertOpOutputMatchesExpected(f, (x_bad_shape, y), (x_bad_shape,))",
            "def test_wrong_actual_args_errors(self):\n    if False:\n        i = 10\n        while True:\n            print('Mutation')\n    x = np.arange(6, dtype=np.float32).reshape((3, 2))\n    y = np.arange(6, dtype=np.int32).reshape((2, 3))\n    (module, version) = serialize('\\nmodule @jit_f.0 attributes {jax.uses_shape_polymorphism = true} {\\n  func.func public @main(%arg0: tensor<?x2xf32>, %arg1: tensor<*xi32>) -> tensor<?x2xf32> {\\n    return %arg0 : tensor<?x2xf32>\\n  }\\n}\\n')\n\n    def f(x, y):\n        return xla.call_module([x, y], module=module, version=version, Tout=[x.dtype], Sout=[(None, 2)], platforms=[self.testing_platform()])\n    self._assertOpOutputMatchesExpected(f, (x, y), (x,))\n    x_bad_etype = x.astype(np.int32)\n    with self.assertRaisesRegex(errors.InvalidArgumentError, 'Element type mismatch for argument 0 passed to XlaCallModule: expecting tensor<\\\\?x2xf32>, got tensor<3x2xi32>'):\n        self._assertOpOutputMatchesExpected(f, (x_bad_etype, y), (x_bad_etype,))\n    y_bad_etype = y.astype(np.float32)\n    with self.assertRaisesRegex(errors.InvalidArgumentError, 'Element type mismatch for argument 1 passed to XlaCallModule: expecting tensor<\\\\*xi32>, got tensor<2x3xf32>'):\n        self._assertOpOutputMatchesExpected(f, (x, y_bad_etype), (x,))\n    x_bad_shape = np.arange(15, dtype=np.float32).reshape(5, 3)\n    with self.assertRaisesRegex(errors.InvalidArgumentError, 'Shape mismatch for argument 0 passed to XlaCallModule: expecting tensor<\\\\?x2xf32>, got tensor<5x3xf32>'):\n        self._assertOpOutputMatchesExpected(f, (x_bad_shape, y), (x_bad_shape,))",
            "def test_wrong_actual_args_errors(self):\n    if False:\n        i = 10\n        while True:\n            print('Mutation')\n        n = 10\n        dp = [0, 1]\n        for i in range(2, n + 1):\n            dp.append(dp[i - 1] + dp[i - 2])\n        print(dp[n])\n    x = np.arange(6, dtype=np.float32).reshape((3, 2))\n    y = np.arange(6, dtype=np.int32).reshape((2, 3))\n    (module, version) = serialize('\\nmodule @jit_f.0 attributes {jax.uses_shape_polymorphism = true} {\\n  func.func public @main(%arg0: tensor<?x2xf32>, %arg1: tensor<*xi32>) -> tensor<?x2xf32> {\\n    return %arg0 : tensor<?x2xf32>\\n  }\\n}\\n')\n\n    def f(x, y):\n        return xla.call_module([x, y], module=module, version=version, Tout=[x.dtype], Sout=[(None, 2)], platforms=[self.testing_platform()])\n    self._assertOpOutputMatchesExpected(f, (x, y), (x,))\n    x_bad_etype = x.astype(np.int32)\n    with self.assertRaisesRegex(errors.InvalidArgumentError, 'Element type mismatch for argument 0 passed to XlaCallModule: expecting tensor<\\\\?x2xf32>, got tensor<3x2xi32>'):\n        self._assertOpOutputMatchesExpected(f, (x_bad_etype, y), (x_bad_etype,))\n    y_bad_etype = y.astype(np.float32)\n    with self.assertRaisesRegex(errors.InvalidArgumentError, 'Element type mismatch for argument 1 passed to XlaCallModule: expecting tensor<\\\\*xi32>, got tensor<2x3xf32>'):\n        self._assertOpOutputMatchesExpected(f, (x, y_bad_etype), (x,))\n    x_bad_shape = np.arange(15, dtype=np.float32).reshape(5, 3)\n    with self.assertRaisesRegex(errors.InvalidArgumentError, 'Shape mismatch for argument 0 passed to XlaCallModule: expecting tensor<\\\\?x2xf32>, got tensor<5x3xf32>'):\n        self._assertOpOutputMatchesExpected(f, (x_bad_shape, y), (x_bad_shape,))",
            "def test_wrong_actual_args_errors(self):\n    if False:\n        i = 10\n        while True:\n            print('Mutation')\n        n = 10\n        dp = [0, 1]\n        for i in range(2, n + 1):\n            dp.append(dp[i - 1] + dp[i - 2])\n        print(dp[n])\n\n        def dfs(node):\n            if node == None:\n                return []\n            left = dfs(node.left)\n            right = dfs(node.right)\n    x = np.arange(6, dtype=np.float32).reshape((3, 2))\n    y = np.arange(6, dtype=np.int32).reshape((2, 3))\n    (module, version) = serialize('\\nmodule @jit_f.0 attributes {jax.uses_shape_polymorphism = true} {\\n  func.func public @main(%arg0: tensor<?x2xf32>, %arg1: tensor<*xi32>) -> tensor<?x2xf32> {\\n    return %arg0 : tensor<?x2xf32>\\n  }\\n}\\n')\n\n    def f(x, y):\n        return xla.call_module([x, y], module=module, version=version, Tout=[x.dtype], Sout=[(None, 2)], platforms=[self.testing_platform()])\n    self._assertOpOutputMatchesExpected(f, (x, y), (x,))\n    x_bad_etype = x.astype(np.int32)\n    with self.assertRaisesRegex(errors.InvalidArgumentError, 'Element type mismatch for argument 0 passed to XlaCallModule: expecting tensor<\\\\?x2xf32>, got tensor<3x2xi32>'):\n        self._assertOpOutputMatchesExpected(f, (x_bad_etype, y), (x_bad_etype,))\n    y_bad_etype = y.astype(np.float32)\n    with self.assertRaisesRegex(errors.InvalidArgumentError, 'Element type mismatch for argument 1 passed to XlaCallModule: expecting tensor<\\\\*xi32>, got tensor<2x3xf32>'):\n        self._assertOpOutputMatchesExpected(f, (x, y_bad_etype), (x,))\n    x_bad_shape = np.arange(15, dtype=np.float32).reshape(5, 3)\n    with self.assertRaisesRegex(errors.InvalidArgumentError, 'Shape mismatch for argument 0 passed to XlaCallModule: expecting tensor<\\\\?x2xf32>, got tensor<5x3xf32>'):\n        self._assertOpOutputMatchesExpected(f, (x_bad_shape, y), (x_bad_shape,))",
            "def test_wrong_actual_args_errors(self):\n    if False:\n        i = 10\n        while True:\n            print('Mutation')\n        dp = [0, 1]\n        for i in range(2, n + 1):\n            dp.append(dp[i - 1] + dp[i - 2])\n        print(dp[n])\n\n        def dfs(node):\n            if node == None:\n                return []\n            left = dfs(node.left)\n            right = dfs(node.right)\n        length = 15\n        if length <= 0:\n            return []\n        elif length == 1:\n            return [0]\n        sequence = [0, 1]\n        while len(sequence) < length:\n            next_value = sequence[-1] + sequence[-2]\n            sequence.append(next_value)\n        return sequence\n    x = np.arange(6, dtype=np.float32).reshape((3, 2))\n    y = np.arange(6, dtype=np.int32).reshape((2, 3))\n    (module, version) = serialize('\\nmodule @jit_f.0 attributes {jax.uses_shape_polymorphism = true} {\\n  func.func public @main(%arg0: tensor<?x2xf32>, %arg1: tensor<*xi32>) -> tensor<?x2xf32> {\\n    return %arg0 : tensor<?x2xf32>\\n  }\\n}\\n')\n\n    def f(x, y):\n        return xla.call_module([x, y], module=module, version=version, Tout=[x.dtype], Sout=[(None, 2)], platforms=[self.testing_platform()])\n    self._assertOpOutputMatchesExpected(f, (x, y), (x,))\n    x_bad_etype = x.astype(np.int32)\n    with self.assertRaisesRegex(errors.InvalidArgumentError, 'Element type mismatch for argument 0 passed to XlaCallModule: expecting tensor<\\\\?x2xf32>, got tensor<3x2xi32>'):\n        self._assertOpOutputMatchesExpected(f, (x_bad_etype, y), (x_bad_etype,))\n    y_bad_etype = y.astype(np.float32)\n    with self.assertRaisesRegex(errors.InvalidArgumentError, 'Element type mismatch for argument 1 passed to XlaCallModule: expecting tensor<\\\\*xi32>, got tensor<2x3xf32>'):\n        self._assertOpOutputMatchesExpected(f, (x, y_bad_etype), (x,))\n    x_bad_shape = np.arange(15, dtype=np.float32).reshape(5, 3)\n    with self.assertRaisesRegex(errors.InvalidArgumentError, 'Shape mismatch for argument 0 passed to XlaCallModule: expecting tensor<\\\\?x2xf32>, got tensor<5x3xf32>'):\n        self._assertOpOutputMatchesExpected(f, (x_bad_shape, y), (x_bad_shape,))"
        ]
    },
    {
        "func_name": "f",
        "original": "def f(x):\n    return xla.call_module([x], version=version, module=module, Tout=[np.float32], Sout=[()], platforms=platforms)",
        "mutated": [
            "def f(x):\n    if False:\n        i = 10\n    return xla.call_module([x], version=version, module=module, Tout=[np.float32], Sout=[()], platforms=platforms)",
            "def f(x):\n    if False:\n        i = 10\n        while True:\n            print('Mutation')\n    return xla.call_module([x], version=version, module=module, Tout=[np.float32], Sout=[()], platforms=platforms)",
            "def f(x):\n    if False:\n        i = 10\n        while True:\n            print('Mutation')\n        n = 10\n        dp = [0, 1]\n        for i in range(2, n + 1):\n            dp.append(dp[i - 1] + dp[i - 2])\n        print(dp[n])\n    return xla.call_module([x], version=version, module=module, Tout=[np.float32], Sout=[()], platforms=platforms)",
            "def f(x):\n    if False:\n        i = 10\n        while True:\n            print('Mutation')\n        n = 10\n        dp = [0, 1]\n        for i in range(2, n + 1):\n            dp.append(dp[i - 1] + dp[i - 2])\n        print(dp[n])\n\n        def dfs(node):\n            if node == None:\n                return []\n            left = dfs(node.left)\n            right = dfs(node.right)\n    return xla.call_module([x], version=version, module=module, Tout=[np.float32], Sout=[()], platforms=platforms)",
            "def f(x):\n    if False:\n        i = 10\n        while True:\n            print('Mutation')\n        dp = [0, 1]\n        for i in range(2, n + 1):\n            dp.append(dp[i - 1] + dp[i - 2])\n        print(dp[n])\n\n        def dfs(node):\n            if node == None:\n                return []\n            left = dfs(node.left)\n            right = dfs(node.right)\n        length = 15\n        if length <= 0:\n            return []\n        elif length == 1:\n            return [0]\n        sequence = [0, 1]\n        while len(sequence) < length:\n            next_value = sequence[-1] + sequence[-2]\n            sequence.append(next_value)\n        return sequence\n    return xla.call_module([x], version=version, module=module, Tout=[np.float32], Sout=[()], platforms=platforms)"
        ]
    },
    {
        "func_name": "test_platforms_basic",
        "original": "@parameterized.named_parameters((dict(testcase_name='_' + platform_idx_type, platform_idx_type=platform_idx_type) for platform_idx_type in ('i32', 'i64')))\ndef test_platforms_basic(self, *, platform_idx_type: str):\n    x = np.float32(0.0)\n    (module, version) = serialize(f'\\nmodule @jit_f.0 {{\\n  func.func public @main(%arg_platform_idx: tensor<{platform_idx_type}> {{jax.global_constant = \"_platform_index\"}}, %arg0: tensor<f32>) -> tensor<f32> {{\\n    %0 = stablehlo.convert %arg_platform_idx : (tensor<{platform_idx_type}>) -> tensor<i32>\\n    %to_add = \"stablehlo.case\"(%0) ({{\\n      %cpu_val = stablehlo.constant dense<2.> : tensor<f32>\\n      stablehlo.return %cpu_val : tensor<f32>\\n    }}, {{\\n      %gpu_val = stablehlo.constant dense<3.> : tensor<f32>\\n      stablehlo.return %gpu_val : tensor<f32>\\n    }}, {{\\n      %tpu_val = stablehlo.constant dense<4.> : tensor<f32>\\n      stablehlo.return %tpu_val : tensor<f32>\\n    }}) : (tensor<i32>) -> tensor<f32>\\n    %1 = stablehlo.add %arg0, %to_add : tensor<f32>\\n    return %1 : tensor<f32>\\n  }}\\n}}\\n')\n    platforms = ['CPU', 'CUDA', 'ROCM', 'TPU']\n\n    def f(x):\n        return xla.call_module([x], version=version, module=module, Tout=[np.float32], Sout=[()], platforms=platforms)\n    expected_value = x + dict(CPU=2.0, CUDA=3.0, ROCM=3.0, TPU=4.0)[self.testing_platform()]\n    self._assertOpOutputMatchesExpected(f, (x,), (expected_value,))",
        "mutated": [
            "@parameterized.named_parameters((dict(testcase_name='_' + platform_idx_type, platform_idx_type=platform_idx_type) for platform_idx_type in ('i32', 'i64')))\ndef test_platforms_basic(self, *, platform_idx_type: str):\n    if False:\n        i = 10\n    x = np.float32(0.0)\n    (module, version) = serialize(f'\\nmodule @jit_f.0 {{\\n  func.func public @main(%arg_platform_idx: tensor<{platform_idx_type}> {{jax.global_constant = \"_platform_index\"}}, %arg0: tensor<f32>) -> tensor<f32> {{\\n    %0 = stablehlo.convert %arg_platform_idx : (tensor<{platform_idx_type}>) -> tensor<i32>\\n    %to_add = \"stablehlo.case\"(%0) ({{\\n      %cpu_val = stablehlo.constant dense<2.> : tensor<f32>\\n      stablehlo.return %cpu_val : tensor<f32>\\n    }}, {{\\n      %gpu_val = stablehlo.constant dense<3.> : tensor<f32>\\n      stablehlo.return %gpu_val : tensor<f32>\\n    }}, {{\\n      %tpu_val = stablehlo.constant dense<4.> : tensor<f32>\\n      stablehlo.return %tpu_val : tensor<f32>\\n    }}) : (tensor<i32>) -> tensor<f32>\\n    %1 = stablehlo.add %arg0, %to_add : tensor<f32>\\n    return %1 : tensor<f32>\\n  }}\\n}}\\n')\n    platforms = ['CPU', 'CUDA', 'ROCM', 'TPU']\n\n    def f(x):\n        return xla.call_module([x], version=version, module=module, Tout=[np.float32], Sout=[()], platforms=platforms)\n    expected_value = x + dict(CPU=2.0, CUDA=3.0, ROCM=3.0, TPU=4.0)[self.testing_platform()]\n    self._assertOpOutputMatchesExpected(f, (x,), (expected_value,))",
            "@parameterized.named_parameters((dict(testcase_name='_' + platform_idx_type, platform_idx_type=platform_idx_type) for platform_idx_type in ('i32', 'i64')))\ndef test_platforms_basic(self, *, platform_idx_type: str):\n    if False:\n        i = 10\n        while True:\n            print('Mutation')\n    x = np.float32(0.0)\n    (module, version) = serialize(f'\\nmodule @jit_f.0 {{\\n  func.func public @main(%arg_platform_idx: tensor<{platform_idx_type}> {{jax.global_constant = \"_platform_index\"}}, %arg0: tensor<f32>) -> tensor<f32> {{\\n    %0 = stablehlo.convert %arg_platform_idx : (tensor<{platform_idx_type}>) -> tensor<i32>\\n    %to_add = \"stablehlo.case\"(%0) ({{\\n      %cpu_val = stablehlo.constant dense<2.> : tensor<f32>\\n      stablehlo.return %cpu_val : tensor<f32>\\n    }}, {{\\n      %gpu_val = stablehlo.constant dense<3.> : tensor<f32>\\n      stablehlo.return %gpu_val : tensor<f32>\\n    }}, {{\\n      %tpu_val = stablehlo.constant dense<4.> : tensor<f32>\\n      stablehlo.return %tpu_val : tensor<f32>\\n    }}) : (tensor<i32>) -> tensor<f32>\\n    %1 = stablehlo.add %arg0, %to_add : tensor<f32>\\n    return %1 : tensor<f32>\\n  }}\\n}}\\n')\n    platforms = ['CPU', 'CUDA', 'ROCM', 'TPU']\n\n    def f(x):\n        return xla.call_module([x], version=version, module=module, Tout=[np.float32], Sout=[()], platforms=platforms)\n    expected_value = x + dict(CPU=2.0, CUDA=3.0, ROCM=3.0, TPU=4.0)[self.testing_platform()]\n    self._assertOpOutputMatchesExpected(f, (x,), (expected_value,))",
            "@parameterized.named_parameters((dict(testcase_name='_' + platform_idx_type, platform_idx_type=platform_idx_type) for platform_idx_type in ('i32', 'i64')))\ndef test_platforms_basic(self, *, platform_idx_type: str):\n    if False:\n        i = 10\n        while True:\n            print('Mutation')\n        n = 10\n        dp = [0, 1]\n        for i in range(2, n + 1):\n            dp.append(dp[i - 1] + dp[i - 2])\n        print(dp[n])\n    x = np.float32(0.0)\n    (module, version) = serialize(f'\\nmodule @jit_f.0 {{\\n  func.func public @main(%arg_platform_idx: tensor<{platform_idx_type}> {{jax.global_constant = \"_platform_index\"}}, %arg0: tensor<f32>) -> tensor<f32> {{\\n    %0 = stablehlo.convert %arg_platform_idx : (tensor<{platform_idx_type}>) -> tensor<i32>\\n    %to_add = \"stablehlo.case\"(%0) ({{\\n      %cpu_val = stablehlo.constant dense<2.> : tensor<f32>\\n      stablehlo.return %cpu_val : tensor<f32>\\n    }}, {{\\n      %gpu_val = stablehlo.constant dense<3.> : tensor<f32>\\n      stablehlo.return %gpu_val : tensor<f32>\\n    }}, {{\\n      %tpu_val = stablehlo.constant dense<4.> : tensor<f32>\\n      stablehlo.return %tpu_val : tensor<f32>\\n    }}) : (tensor<i32>) -> tensor<f32>\\n    %1 = stablehlo.add %arg0, %to_add : tensor<f32>\\n    return %1 : tensor<f32>\\n  }}\\n}}\\n')\n    platforms = ['CPU', 'CUDA', 'ROCM', 'TPU']\n\n    def f(x):\n        return xla.call_module([x], version=version, module=module, Tout=[np.float32], Sout=[()], platforms=platforms)\n    expected_value = x + dict(CPU=2.0, CUDA=3.0, ROCM=3.0, TPU=4.0)[self.testing_platform()]\n    self._assertOpOutputMatchesExpected(f, (x,), (expected_value,))",
            "@parameterized.named_parameters((dict(testcase_name='_' + platform_idx_type, platform_idx_type=platform_idx_type) for platform_idx_type in ('i32', 'i64')))\ndef test_platforms_basic(self, *, platform_idx_type: str):\n    if False:\n        i = 10\n        while True:\n            print('Mutation')\n        n = 10\n        dp = [0, 1]\n        for i in range(2, n + 1):\n            dp.append(dp[i - 1] + dp[i - 2])\n        print(dp[n])\n\n        def dfs(node):\n            if node == None:\n                return []\n            left = dfs(node.left)\n            right = dfs(node.right)\n    x = np.float32(0.0)\n    (module, version) = serialize(f'\\nmodule @jit_f.0 {{\\n  func.func public @main(%arg_platform_idx: tensor<{platform_idx_type}> {{jax.global_constant = \"_platform_index\"}}, %arg0: tensor<f32>) -> tensor<f32> {{\\n    %0 = stablehlo.convert %arg_platform_idx : (tensor<{platform_idx_type}>) -> tensor<i32>\\n    %to_add = \"stablehlo.case\"(%0) ({{\\n      %cpu_val = stablehlo.constant dense<2.> : tensor<f32>\\n      stablehlo.return %cpu_val : tensor<f32>\\n    }}, {{\\n      %gpu_val = stablehlo.constant dense<3.> : tensor<f32>\\n      stablehlo.return %gpu_val : tensor<f32>\\n    }}, {{\\n      %tpu_val = stablehlo.constant dense<4.> : tensor<f32>\\n      stablehlo.return %tpu_val : tensor<f32>\\n    }}) : (tensor<i32>) -> tensor<f32>\\n    %1 = stablehlo.add %arg0, %to_add : tensor<f32>\\n    return %1 : tensor<f32>\\n  }}\\n}}\\n')\n    platforms = ['CPU', 'CUDA', 'ROCM', 'TPU']\n\n    def f(x):\n        return xla.call_module([x], version=version, module=module, Tout=[np.float32], Sout=[()], platforms=platforms)\n    expected_value = x + dict(CPU=2.0, CUDA=3.0, ROCM=3.0, TPU=4.0)[self.testing_platform()]\n    self._assertOpOutputMatchesExpected(f, (x,), (expected_value,))",
            "@parameterized.named_parameters((dict(testcase_name='_' + platform_idx_type, platform_idx_type=platform_idx_type) for platform_idx_type in ('i32', 'i64')))\ndef test_platforms_basic(self, *, platform_idx_type: str):\n    if False:\n        i = 10\n        while True:\n            print('Mutation')\n        dp = [0, 1]\n        for i in range(2, n + 1):\n            dp.append(dp[i - 1] + dp[i - 2])\n        print(dp[n])\n\n        def dfs(node):\n            if node == None:\n                return []\n            left = dfs(node.left)\n            right = dfs(node.right)\n        length = 15\n        if length <= 0:\n            return []\n        elif length == 1:\n            return [0]\n        sequence = [0, 1]\n        while len(sequence) < length:\n            next_value = sequence[-1] + sequence[-2]\n            sequence.append(next_value)\n        return sequence\n    x = np.float32(0.0)\n    (module, version) = serialize(f'\\nmodule @jit_f.0 {{\\n  func.func public @main(%arg_platform_idx: tensor<{platform_idx_type}> {{jax.global_constant = \"_platform_index\"}}, %arg0: tensor<f32>) -> tensor<f32> {{\\n    %0 = stablehlo.convert %arg_platform_idx : (tensor<{platform_idx_type}>) -> tensor<i32>\\n    %to_add = \"stablehlo.case\"(%0) ({{\\n      %cpu_val = stablehlo.constant dense<2.> : tensor<f32>\\n      stablehlo.return %cpu_val : tensor<f32>\\n    }}, {{\\n      %gpu_val = stablehlo.constant dense<3.> : tensor<f32>\\n      stablehlo.return %gpu_val : tensor<f32>\\n    }}, {{\\n      %tpu_val = stablehlo.constant dense<4.> : tensor<f32>\\n      stablehlo.return %tpu_val : tensor<f32>\\n    }}) : (tensor<i32>) -> tensor<f32>\\n    %1 = stablehlo.add %arg0, %to_add : tensor<f32>\\n    return %1 : tensor<f32>\\n  }}\\n}}\\n')\n    platforms = ['CPU', 'CUDA', 'ROCM', 'TPU']\n\n    def f(x):\n        return xla.call_module([x], version=version, module=module, Tout=[np.float32], Sout=[()], platforms=platforms)\n    expected_value = x + dict(CPU=2.0, CUDA=3.0, ROCM=3.0, TPU=4.0)[self.testing_platform()]\n    self._assertOpOutputMatchesExpected(f, (x,), (expected_value,))"
        ]
    },
    {
        "func_name": "f",
        "original": "def f(x):\n    return xla.call_module([x], version=version, module=module, Tout=[np.float32], Sout=[()], platforms=platforms)",
        "mutated": [
            "def f(x):\n    if False:\n        i = 10\n    return xla.call_module([x], version=version, module=module, Tout=[np.float32], Sout=[()], platforms=platforms)",
            "def f(x):\n    if False:\n        i = 10\n        while True:\n            print('Mutation')\n    return xla.call_module([x], version=version, module=module, Tout=[np.float32], Sout=[()], platforms=platforms)",
            "def f(x):\n    if False:\n        i = 10\n        while True:\n            print('Mutation')\n        n = 10\n        dp = [0, 1]\n        for i in range(2, n + 1):\n            dp.append(dp[i - 1] + dp[i - 2])\n        print(dp[n])\n    return xla.call_module([x], version=version, module=module, Tout=[np.float32], Sout=[()], platforms=platforms)",
            "def f(x):\n    if False:\n        i = 10\n        while True:\n            print('Mutation')\n        n = 10\n        dp = [0, 1]\n        for i in range(2, n + 1):\n            dp.append(dp[i - 1] + dp[i - 2])\n        print(dp[n])\n\n        def dfs(node):\n            if node == None:\n                return []\n            left = dfs(node.left)\n            right = dfs(node.right)\n    return xla.call_module([x], version=version, module=module, Tout=[np.float32], Sout=[()], platforms=platforms)",
            "def f(x):\n    if False:\n        i = 10\n        while True:\n            print('Mutation')\n        dp = [0, 1]\n        for i in range(2, n + 1):\n            dp.append(dp[i - 1] + dp[i - 2])\n        print(dp[n])\n\n        def dfs(node):\n            if node == None:\n                return []\n            left = dfs(node.left)\n            right = dfs(node.right)\n        length = 15\n        if length <= 0:\n            return []\n        elif length == 1:\n            return [0]\n        sequence = [0, 1]\n        while len(sequence) < length:\n            next_value = sequence[-1] + sequence[-2]\n            sequence.append(next_value)\n        return sequence\n    return xla.call_module([x], version=version, module=module, Tout=[np.float32], Sout=[()], platforms=platforms)"
        ]
    },
    {
        "func_name": "test_platforms_unknown_custom_call",
        "original": "def test_platforms_unknown_custom_call(self):\n    if self.testing_platform() == 'ROCM':\n        raise unittest.SkipTest('Not intended for ROCM')\n    x = np.float32(0.0)\n    (module, version) = serialize('\\nmodule @jit_f.0 {\\n  func.func public @main(%arg_platform_idx: tensor<i32> {jax.global_constant = \"_platform_index\"}, %arg0: tensor<f32>) -> tensor<f32> {\\n    %to_add = \"stablehlo.case\"(%arg_platform_idx) ({\\n      %cpu_val = stablehlo.constant dense<2.> : tensor<f32>\\n      stablehlo.return %cpu_val : tensor<f32>\\n    }, {\\n      %gpu_val = stablehlo.constant dense<3.> : tensor<f32>\\n      stablehlo.return %gpu_val : tensor<f32>\\n    }, {\\n      %tpu_val = stablehlo.constant dense<4.> : tensor<f32>\\n      stablehlo.return %tpu_val : tensor<f32>\\n    }, {\\n      %rocm_val = stablehlo.custom_call @non_existent_target(%arg0) : (tensor<f32>) -> tensor<f32>\\n      stablehlo.return %rocm_val : tensor<f32>\\n    }) : (tensor<i32>) -> tensor<f32>\\n    %0 = stablehlo.add %arg0, %to_add : tensor<f32>\\n    return %0 : tensor<f32>\\n  }\\n}\\n')\n    platforms = ['CPU', 'CUDA', 'TPU', 'ROCM']\n\n    def f(x):\n        return xla.call_module([x], version=version, module=module, Tout=[np.float32], Sout=[()], platforms=platforms)\n    expected_value = x + dict(CPU=2.0, CUDA=3.0, TPU=4.0)[self.testing_platform()]\n    self._assertOpOutputMatchesExpected(f, (x,), (expected_value,))",
        "mutated": [
            "def test_platforms_unknown_custom_call(self):\n    if False:\n        i = 10\n    if self.testing_platform() == 'ROCM':\n        raise unittest.SkipTest('Not intended for ROCM')\n    x = np.float32(0.0)\n    (module, version) = serialize('\\nmodule @jit_f.0 {\\n  func.func public @main(%arg_platform_idx: tensor<i32> {jax.global_constant = \"_platform_index\"}, %arg0: tensor<f32>) -> tensor<f32> {\\n    %to_add = \"stablehlo.case\"(%arg_platform_idx) ({\\n      %cpu_val = stablehlo.constant dense<2.> : tensor<f32>\\n      stablehlo.return %cpu_val : tensor<f32>\\n    }, {\\n      %gpu_val = stablehlo.constant dense<3.> : tensor<f32>\\n      stablehlo.return %gpu_val : tensor<f32>\\n    }, {\\n      %tpu_val = stablehlo.constant dense<4.> : tensor<f32>\\n      stablehlo.return %tpu_val : tensor<f32>\\n    }, {\\n      %rocm_val = stablehlo.custom_call @non_existent_target(%arg0) : (tensor<f32>) -> tensor<f32>\\n      stablehlo.return %rocm_val : tensor<f32>\\n    }) : (tensor<i32>) -> tensor<f32>\\n    %0 = stablehlo.add %arg0, %to_add : tensor<f32>\\n    return %0 : tensor<f32>\\n  }\\n}\\n')\n    platforms = ['CPU', 'CUDA', 'TPU', 'ROCM']\n\n    def f(x):\n        return xla.call_module([x], version=version, module=module, Tout=[np.float32], Sout=[()], platforms=platforms)\n    expected_value = x + dict(CPU=2.0, CUDA=3.0, TPU=4.0)[self.testing_platform()]\n    self._assertOpOutputMatchesExpected(f, (x,), (expected_value,))",
            "def test_platforms_unknown_custom_call(self):\n    if False:\n        i = 10\n        while True:\n            print('Mutation')\n    if self.testing_platform() == 'ROCM':\n        raise unittest.SkipTest('Not intended for ROCM')\n    x = np.float32(0.0)\n    (module, version) = serialize('\\nmodule @jit_f.0 {\\n  func.func public @main(%arg_platform_idx: tensor<i32> {jax.global_constant = \"_platform_index\"}, %arg0: tensor<f32>) -> tensor<f32> {\\n    %to_add = \"stablehlo.case\"(%arg_platform_idx) ({\\n      %cpu_val = stablehlo.constant dense<2.> : tensor<f32>\\n      stablehlo.return %cpu_val : tensor<f32>\\n    }, {\\n      %gpu_val = stablehlo.constant dense<3.> : tensor<f32>\\n      stablehlo.return %gpu_val : tensor<f32>\\n    }, {\\n      %tpu_val = stablehlo.constant dense<4.> : tensor<f32>\\n      stablehlo.return %tpu_val : tensor<f32>\\n    }, {\\n      %rocm_val = stablehlo.custom_call @non_existent_target(%arg0) : (tensor<f32>) -> tensor<f32>\\n      stablehlo.return %rocm_val : tensor<f32>\\n    }) : (tensor<i32>) -> tensor<f32>\\n    %0 = stablehlo.add %arg0, %to_add : tensor<f32>\\n    return %0 : tensor<f32>\\n  }\\n}\\n')\n    platforms = ['CPU', 'CUDA', 'TPU', 'ROCM']\n\n    def f(x):\n        return xla.call_module([x], version=version, module=module, Tout=[np.float32], Sout=[()], platforms=platforms)\n    expected_value = x + dict(CPU=2.0, CUDA=3.0, TPU=4.0)[self.testing_platform()]\n    self._assertOpOutputMatchesExpected(f, (x,), (expected_value,))",
            "def test_platforms_unknown_custom_call(self):\n    if False:\n        i = 10\n        while True:\n            print('Mutation')\n        n = 10\n        dp = [0, 1]\n        for i in range(2, n + 1):\n            dp.append(dp[i - 1] + dp[i - 2])\n        print(dp[n])\n    if self.testing_platform() == 'ROCM':\n        raise unittest.SkipTest('Not intended for ROCM')\n    x = np.float32(0.0)\n    (module, version) = serialize('\\nmodule @jit_f.0 {\\n  func.func public @main(%arg_platform_idx: tensor<i32> {jax.global_constant = \"_platform_index\"}, %arg0: tensor<f32>) -> tensor<f32> {\\n    %to_add = \"stablehlo.case\"(%arg_platform_idx) ({\\n      %cpu_val = stablehlo.constant dense<2.> : tensor<f32>\\n      stablehlo.return %cpu_val : tensor<f32>\\n    }, {\\n      %gpu_val = stablehlo.constant dense<3.> : tensor<f32>\\n      stablehlo.return %gpu_val : tensor<f32>\\n    }, {\\n      %tpu_val = stablehlo.constant dense<4.> : tensor<f32>\\n      stablehlo.return %tpu_val : tensor<f32>\\n    }, {\\n      %rocm_val = stablehlo.custom_call @non_existent_target(%arg0) : (tensor<f32>) -> tensor<f32>\\n      stablehlo.return %rocm_val : tensor<f32>\\n    }) : (tensor<i32>) -> tensor<f32>\\n    %0 = stablehlo.add %arg0, %to_add : tensor<f32>\\n    return %0 : tensor<f32>\\n  }\\n}\\n')\n    platforms = ['CPU', 'CUDA', 'TPU', 'ROCM']\n\n    def f(x):\n        return xla.call_module([x], version=version, module=module, Tout=[np.float32], Sout=[()], platforms=platforms)\n    expected_value = x + dict(CPU=2.0, CUDA=3.0, TPU=4.0)[self.testing_platform()]\n    self._assertOpOutputMatchesExpected(f, (x,), (expected_value,))",
            "def test_platforms_unknown_custom_call(self):\n    if False:\n        i = 10\n        while True:\n            print('Mutation')\n        n = 10\n        dp = [0, 1]\n        for i in range(2, n + 1):\n            dp.append(dp[i - 1] + dp[i - 2])\n        print(dp[n])\n\n        def dfs(node):\n            if node == None:\n                return []\n            left = dfs(node.left)\n            right = dfs(node.right)\n    if self.testing_platform() == 'ROCM':\n        raise unittest.SkipTest('Not intended for ROCM')\n    x = np.float32(0.0)\n    (module, version) = serialize('\\nmodule @jit_f.0 {\\n  func.func public @main(%arg_platform_idx: tensor<i32> {jax.global_constant = \"_platform_index\"}, %arg0: tensor<f32>) -> tensor<f32> {\\n    %to_add = \"stablehlo.case\"(%arg_platform_idx) ({\\n      %cpu_val = stablehlo.constant dense<2.> : tensor<f32>\\n      stablehlo.return %cpu_val : tensor<f32>\\n    }, {\\n      %gpu_val = stablehlo.constant dense<3.> : tensor<f32>\\n      stablehlo.return %gpu_val : tensor<f32>\\n    }, {\\n      %tpu_val = stablehlo.constant dense<4.> : tensor<f32>\\n      stablehlo.return %tpu_val : tensor<f32>\\n    }, {\\n      %rocm_val = stablehlo.custom_call @non_existent_target(%arg0) : (tensor<f32>) -> tensor<f32>\\n      stablehlo.return %rocm_val : tensor<f32>\\n    }) : (tensor<i32>) -> tensor<f32>\\n    %0 = stablehlo.add %arg0, %to_add : tensor<f32>\\n    return %0 : tensor<f32>\\n  }\\n}\\n')\n    platforms = ['CPU', 'CUDA', 'TPU', 'ROCM']\n\n    def f(x):\n        return xla.call_module([x], version=version, module=module, Tout=[np.float32], Sout=[()], platforms=platforms)\n    expected_value = x + dict(CPU=2.0, CUDA=3.0, TPU=4.0)[self.testing_platform()]\n    self._assertOpOutputMatchesExpected(f, (x,), (expected_value,))",
            "def test_platforms_unknown_custom_call(self):\n    if False:\n        i = 10\n        while True:\n            print('Mutation')\n        dp = [0, 1]\n        for i in range(2, n + 1):\n            dp.append(dp[i - 1] + dp[i - 2])\n        print(dp[n])\n\n        def dfs(node):\n            if node == None:\n                return []\n            left = dfs(node.left)\n            right = dfs(node.right)\n        length = 15\n        if length <= 0:\n            return []\n        elif length == 1:\n            return [0]\n        sequence = [0, 1]\n        while len(sequence) < length:\n            next_value = sequence[-1] + sequence[-2]\n            sequence.append(next_value)\n        return sequence\n    if self.testing_platform() == 'ROCM':\n        raise unittest.SkipTest('Not intended for ROCM')\n    x = np.float32(0.0)\n    (module, version) = serialize('\\nmodule @jit_f.0 {\\n  func.func public @main(%arg_platform_idx: tensor<i32> {jax.global_constant = \"_platform_index\"}, %arg0: tensor<f32>) -> tensor<f32> {\\n    %to_add = \"stablehlo.case\"(%arg_platform_idx) ({\\n      %cpu_val = stablehlo.constant dense<2.> : tensor<f32>\\n      stablehlo.return %cpu_val : tensor<f32>\\n    }, {\\n      %gpu_val = stablehlo.constant dense<3.> : tensor<f32>\\n      stablehlo.return %gpu_val : tensor<f32>\\n    }, {\\n      %tpu_val = stablehlo.constant dense<4.> : tensor<f32>\\n      stablehlo.return %tpu_val : tensor<f32>\\n    }, {\\n      %rocm_val = stablehlo.custom_call @non_existent_target(%arg0) : (tensor<f32>) -> tensor<f32>\\n      stablehlo.return %rocm_val : tensor<f32>\\n    }) : (tensor<i32>) -> tensor<f32>\\n    %0 = stablehlo.add %arg0, %to_add : tensor<f32>\\n    return %0 : tensor<f32>\\n  }\\n}\\n')\n    platforms = ['CPU', 'CUDA', 'TPU', 'ROCM']\n\n    def f(x):\n        return xla.call_module([x], version=version, module=module, Tout=[np.float32], Sout=[()], platforms=platforms)\n    expected_value = x + dict(CPU=2.0, CUDA=3.0, TPU=4.0)[self.testing_platform()]\n    self._assertOpOutputMatchesExpected(f, (x,), (expected_value,))"
        ]
    },
    {
        "func_name": "f",
        "original": "def f(x):\n    return xla.call_module([x], version=version, module=module, Tout=[np.float32], Sout=[()], platforms=platforms)",
        "mutated": [
            "def f(x):\n    if False:\n        i = 10\n    return xla.call_module([x], version=version, module=module, Tout=[np.float32], Sout=[()], platforms=platforms)",
            "def f(x):\n    if False:\n        i = 10\n        while True:\n            print('Mutation')\n    return xla.call_module([x], version=version, module=module, Tout=[np.float32], Sout=[()], platforms=platforms)",
            "def f(x):\n    if False:\n        i = 10\n        while True:\n            print('Mutation')\n        n = 10\n        dp = [0, 1]\n        for i in range(2, n + 1):\n            dp.append(dp[i - 1] + dp[i - 2])\n        print(dp[n])\n    return xla.call_module([x], version=version, module=module, Tout=[np.float32], Sout=[()], platforms=platforms)",
            "def f(x):\n    if False:\n        i = 10\n        while True:\n            print('Mutation')\n        n = 10\n        dp = [0, 1]\n        for i in range(2, n + 1):\n            dp.append(dp[i - 1] + dp[i - 2])\n        print(dp[n])\n\n        def dfs(node):\n            if node == None:\n                return []\n            left = dfs(node.left)\n            right = dfs(node.right)\n    return xla.call_module([x], version=version, module=module, Tout=[np.float32], Sout=[()], platforms=platforms)",
            "def f(x):\n    if False:\n        i = 10\n        while True:\n            print('Mutation')\n        dp = [0, 1]\n        for i in range(2, n + 1):\n            dp.append(dp[i - 1] + dp[i - 2])\n        print(dp[n])\n\n        def dfs(node):\n            if node == None:\n                return []\n            left = dfs(node.left)\n            right = dfs(node.right)\n        length = 15\n        if length <= 0:\n            return []\n        elif length == 1:\n            return [0]\n        sequence = [0, 1]\n        while len(sequence) < length:\n            next_value = sequence[-1] + sequence[-2]\n            sequence.append(next_value)\n        return sequence\n    return xla.call_module([x], version=version, module=module, Tout=[np.float32], Sout=[()], platforms=platforms)"
        ]
    },
    {
        "func_name": "test_platforms_and_poly",
        "original": "def test_platforms_and_poly(self):\n    x = np.arange(6, dtype=np.float32)\n    (module, version) = serialize('\\nmodule @jit_f_jax attributes {jax.uses_shape_polymorphism = true} {\\n  func.func public @main(%arg_platform_idx: tensor<i32> {jax.global_constant = \"_platform_index\"}, %arg0: tensor<?xf32>) -> (tensor<?xf32>) {\\n    %0 = stablehlo.get_dimension_size %arg0, dim = 0 : (tensor<?xf32>) -> tensor<i32>\\n    %5 = call @_wrapped_jax_export_main(%arg_platform_idx, %0, %arg0) : (tensor<i32>, tensor<i32>, tensor<?xf32>) -> tensor<?xf32>\\n    return %5 : tensor<?xf32>\\n  }\\n\\n  func.func private @_wrapped_jax_export_main(%arg_platform_idx: tensor<i32> {jax.global_constant = \"_platform_index\"}, %arg0: tensor<i32> {jax.global_constant = \"b\"}, %arg1: tensor<?xf32>) -> (tensor<?xf32>) {\\n    %to_add = \"stablehlo.case\"(%arg_platform_idx) ({\\n      %cpu_val = stablehlo.constant dense<2.> : tensor<f32>\\n      stablehlo.return %cpu_val : tensor<f32>\\n    }, {\\n      %gpu_val = stablehlo.constant dense<3.> : tensor<f32>\\n      stablehlo.return %gpu_val : tensor<f32>\\n    }, {\\n      %tpu_val = stablehlo.constant dense<4.> : tensor<f32>\\n      stablehlo.return %tpu_val : tensor<f32>\\n    }) : (tensor<i32>) -> tensor<f32>\\n    %1 = stablehlo.reshape %arg0 : (tensor<i32>) -> tensor<1xi32>\\n    %3 = stablehlo.dynamic_broadcast_in_dim %to_add, %1, dims = [] : (tensor<f32>, tensor<1xi32>) -> tensor<?xf32>\\n    %4 = stablehlo.add %3, %arg1 : tensor<?xf32>\\n    return %4 : tensor<?xf32>\\n  }\\n}\\n')\n    platforms = ['CPU', 'CUDA', 'ROCM', 'TPU']\n\n    def f(x):\n        return xla.call_module([x], version=version, module=module, Tout=[np.float32], Sout=[()], platforms=platforms)\n    expected_value = x + dict(CPU=2.0, CUDA=3.0, ROCM=3.0, TPU=4.0)[self.testing_platform()]\n    self._assertOpOutputMatchesExpected(f, (x,), (expected_value,))",
        "mutated": [
            "def test_platforms_and_poly(self):\n    if False:\n        i = 10\n    x = np.arange(6, dtype=np.float32)\n    (module, version) = serialize('\\nmodule @jit_f_jax attributes {jax.uses_shape_polymorphism = true} {\\n  func.func public @main(%arg_platform_idx: tensor<i32> {jax.global_constant = \"_platform_index\"}, %arg0: tensor<?xf32>) -> (tensor<?xf32>) {\\n    %0 = stablehlo.get_dimension_size %arg0, dim = 0 : (tensor<?xf32>) -> tensor<i32>\\n    %5 = call @_wrapped_jax_export_main(%arg_platform_idx, %0, %arg0) : (tensor<i32>, tensor<i32>, tensor<?xf32>) -> tensor<?xf32>\\n    return %5 : tensor<?xf32>\\n  }\\n\\n  func.func private @_wrapped_jax_export_main(%arg_platform_idx: tensor<i32> {jax.global_constant = \"_platform_index\"}, %arg0: tensor<i32> {jax.global_constant = \"b\"}, %arg1: tensor<?xf32>) -> (tensor<?xf32>) {\\n    %to_add = \"stablehlo.case\"(%arg_platform_idx) ({\\n      %cpu_val = stablehlo.constant dense<2.> : tensor<f32>\\n      stablehlo.return %cpu_val : tensor<f32>\\n    }, {\\n      %gpu_val = stablehlo.constant dense<3.> : tensor<f32>\\n      stablehlo.return %gpu_val : tensor<f32>\\n    }, {\\n      %tpu_val = stablehlo.constant dense<4.> : tensor<f32>\\n      stablehlo.return %tpu_val : tensor<f32>\\n    }) : (tensor<i32>) -> tensor<f32>\\n    %1 = stablehlo.reshape %arg0 : (tensor<i32>) -> tensor<1xi32>\\n    %3 = stablehlo.dynamic_broadcast_in_dim %to_add, %1, dims = [] : (tensor<f32>, tensor<1xi32>) -> tensor<?xf32>\\n    %4 = stablehlo.add %3, %arg1 : tensor<?xf32>\\n    return %4 : tensor<?xf32>\\n  }\\n}\\n')\n    platforms = ['CPU', 'CUDA', 'ROCM', 'TPU']\n\n    def f(x):\n        return xla.call_module([x], version=version, module=module, Tout=[np.float32], Sout=[()], platforms=platforms)\n    expected_value = x + dict(CPU=2.0, CUDA=3.0, ROCM=3.0, TPU=4.0)[self.testing_platform()]\n    self._assertOpOutputMatchesExpected(f, (x,), (expected_value,))",
            "def test_platforms_and_poly(self):\n    if False:\n        i = 10\n        while True:\n            print('Mutation')\n    x = np.arange(6, dtype=np.float32)\n    (module, version) = serialize('\\nmodule @jit_f_jax attributes {jax.uses_shape_polymorphism = true} {\\n  func.func public @main(%arg_platform_idx: tensor<i32> {jax.global_constant = \"_platform_index\"}, %arg0: tensor<?xf32>) -> (tensor<?xf32>) {\\n    %0 = stablehlo.get_dimension_size %arg0, dim = 0 : (tensor<?xf32>) -> tensor<i32>\\n    %5 = call @_wrapped_jax_export_main(%arg_platform_idx, %0, %arg0) : (tensor<i32>, tensor<i32>, tensor<?xf32>) -> tensor<?xf32>\\n    return %5 : tensor<?xf32>\\n  }\\n\\n  func.func private @_wrapped_jax_export_main(%arg_platform_idx: tensor<i32> {jax.global_constant = \"_platform_index\"}, %arg0: tensor<i32> {jax.global_constant = \"b\"}, %arg1: tensor<?xf32>) -> (tensor<?xf32>) {\\n    %to_add = \"stablehlo.case\"(%arg_platform_idx) ({\\n      %cpu_val = stablehlo.constant dense<2.> : tensor<f32>\\n      stablehlo.return %cpu_val : tensor<f32>\\n    }, {\\n      %gpu_val = stablehlo.constant dense<3.> : tensor<f32>\\n      stablehlo.return %gpu_val : tensor<f32>\\n    }, {\\n      %tpu_val = stablehlo.constant dense<4.> : tensor<f32>\\n      stablehlo.return %tpu_val : tensor<f32>\\n    }) : (tensor<i32>) -> tensor<f32>\\n    %1 = stablehlo.reshape %arg0 : (tensor<i32>) -> tensor<1xi32>\\n    %3 = stablehlo.dynamic_broadcast_in_dim %to_add, %1, dims = [] : (tensor<f32>, tensor<1xi32>) -> tensor<?xf32>\\n    %4 = stablehlo.add %3, %arg1 : tensor<?xf32>\\n    return %4 : tensor<?xf32>\\n  }\\n}\\n')\n    platforms = ['CPU', 'CUDA', 'ROCM', 'TPU']\n\n    def f(x):\n        return xla.call_module([x], version=version, module=module, Tout=[np.float32], Sout=[()], platforms=platforms)\n    expected_value = x + dict(CPU=2.0, CUDA=3.0, ROCM=3.0, TPU=4.0)[self.testing_platform()]\n    self._assertOpOutputMatchesExpected(f, (x,), (expected_value,))",
            "def test_platforms_and_poly(self):\n    if False:\n        i = 10\n        while True:\n            print('Mutation')\n        n = 10\n        dp = [0, 1]\n        for i in range(2, n + 1):\n            dp.append(dp[i - 1] + dp[i - 2])\n        print(dp[n])\n    x = np.arange(6, dtype=np.float32)\n    (module, version) = serialize('\\nmodule @jit_f_jax attributes {jax.uses_shape_polymorphism = true} {\\n  func.func public @main(%arg_platform_idx: tensor<i32> {jax.global_constant = \"_platform_index\"}, %arg0: tensor<?xf32>) -> (tensor<?xf32>) {\\n    %0 = stablehlo.get_dimension_size %arg0, dim = 0 : (tensor<?xf32>) -> tensor<i32>\\n    %5 = call @_wrapped_jax_export_main(%arg_platform_idx, %0, %arg0) : (tensor<i32>, tensor<i32>, tensor<?xf32>) -> tensor<?xf32>\\n    return %5 : tensor<?xf32>\\n  }\\n\\n  func.func private @_wrapped_jax_export_main(%arg_platform_idx: tensor<i32> {jax.global_constant = \"_platform_index\"}, %arg0: tensor<i32> {jax.global_constant = \"b\"}, %arg1: tensor<?xf32>) -> (tensor<?xf32>) {\\n    %to_add = \"stablehlo.case\"(%arg_platform_idx) ({\\n      %cpu_val = stablehlo.constant dense<2.> : tensor<f32>\\n      stablehlo.return %cpu_val : tensor<f32>\\n    }, {\\n      %gpu_val = stablehlo.constant dense<3.> : tensor<f32>\\n      stablehlo.return %gpu_val : tensor<f32>\\n    }, {\\n      %tpu_val = stablehlo.constant dense<4.> : tensor<f32>\\n      stablehlo.return %tpu_val : tensor<f32>\\n    }) : (tensor<i32>) -> tensor<f32>\\n    %1 = stablehlo.reshape %arg0 : (tensor<i32>) -> tensor<1xi32>\\n    %3 = stablehlo.dynamic_broadcast_in_dim %to_add, %1, dims = [] : (tensor<f32>, tensor<1xi32>) -> tensor<?xf32>\\n…
ion_list=(add,))\n\n    @function.Defun(dtypes.int32, dtypes.int32)\n    def call(x, y):\n        return nested_xla_call(x, y)\n\n    def f(x, y):\n        (module, version) = serialize('\\nmodule @jit_fun_flat_jax {\\n  func.func public @main(%arg0: tensor<i32>, %arg1: tensor<i32>) -> tensor<i32> {\\n    %0 = stablehlo.custom_call @tf.call_tf_function(%arg0, %arg1) {\\n      tf.backend_config = {called_index = 0}\\n    } : (tensor<i32>, tensor<i32>) -> tensor<i32>\\n    return %0 : tensor<i32>\\n  }\\n}\\n')\n        return xla.call_module([x, y], version=version, module=module, Tout=[res.dtype], Sout=[res.shape], platforms=[self.testing_platform()], function_list=(call,))\n    self._assertOpOutputMatchesExpected(f, (x, y), (res,))",
            "def test_tf_call_function_nested(self):\n    if False:\n        i = 10\n        while True:\n            print('Mutation')\n        n = 10\n        dp = [0, 1]\n        for i in range(2, n + 1):\n            dp.append(dp[i - 1] + dp[i - 2])\n        print(dp[n])\n    'Nested XlaCallModule inside TensorFlow function calls.'\n    x = np.int32(2)\n    y = np.int32(3)\n    res = x + y\n\n    @function.Defun(dtypes.int32, dtypes.int32)\n    def add(x, y):\n        return x + y\n\n    @function.Defun(dtypes.int32, dtypes.int32)\n    def nested_xla_call(x, y):\n        (module, version) = serialize('\\nmodule @jit_fun_flat_jax {\\n  func.func public @main(%arg0: tensor<i32>, %arg1: tensor<i32>) -> tensor<i32> {\\n    %0 = stablehlo.custom_call @tf.call_tf_function(%arg0, %arg1) {\\n      tf.backend_config = {called_index = 0}\\n    } : (tensor<i32>, tensor<i32>) -> tensor<i32>\\n    return %0 : tensor<i32>\\n  }\\n}\\n')\n        return xla.call_module([x, y], version=version, module=module, Tout=[res.dtype], Sout=[res.shape], platforms=[self.testing_platform()], function_list=(add,))\n\n    @function.Defun(dtypes.int32, dtypes.int32)\n    def call(x, y):\n        return nested_xla_call(x, y)\n\n    def f(x, y):\n        (module, version) = serialize('\\nmodule @jit_fun_flat_jax {\\n  func.func public @main(%arg0: tensor<i32>, %arg1: tensor<i32>) -> tensor<i32> {\\n    %0 = stablehlo.custom_call @tf.call_tf_function(%arg0, %arg1) {\\n      tf.backend_config = {called_index = 0}\\n    } : (tensor<i32>, tensor<i32>) -> tensor<i32>\\n    return %0 : tensor<i32>\\n  }\\n}\\n')\n        return xla.call_module([x, y], version=version, module=module, Tout=[res.dtype], Sout=[res.shape], platforms=[self.testing_platform()], function_list=(call,))\n    self._assertOpOutputMatchesExpected(f, (x, y), (res,))",
            "def test_tf_call_function_nested(self):\n    if False:\n        i = 10\n        while True:\n            print('Mutation')\n        n = 10\n        dp = [0, 1]\n        for i in range(2, n + 1):\n            dp.append(dp[i - 1] + dp[i - 2])\n        print(dp[n])\n\n        def dfs(node):\n            if node == None:\n                return []\n            left = dfs(node.left)\n            right = dfs(node.right)\n    'Nested XlaCallModule inside TensorFlow function calls.'\n    x = np.int32(2)\n    y = np.int32(3)\n    res = x + y\n\n    @function.Defun(dtypes.int32, dtypes.int32)\n    def add(x, y):\n        return x + y\n\n    @function.Defun(dtypes.int32, dtypes.int32)\n    def nested_xla_call(x, y):\n        (module, version) = serialize('\\nmodule @jit_fun_flat_jax {\\n  func.func public @main(%arg0: tensor<i32>, %arg1: tensor<i32>) -> tensor<i32> {\\n    %0 = stablehlo.custom_call @tf.call_tf_function(%arg0, %arg1) {\\n      tf.backend_config = {called_index = 0}\\n    } : (tensor<i32>, tensor<i32>) -> tensor<i32>\\n    return %0 : tensor<i32>\\n  }\\n}\\n')\n        return xla.call_module([x, y], version=version, module=module, Tout=[res.dtype], Sout=[res.shape], platforms=[self.testing_platform()], function_list=(add,))\n\n    @function.Defun(dtypes.int32, dtypes.int32)\n    def call(x, y):\n        return nested_xla_call(x, y)\n\n    def f(x, y):\n        (module, version) = serialize('\\nmodule @jit_fun_flat_jax {\\n  func.func public @main(%arg0: tensor<i32>, %arg1: tensor<i32>) -> tensor<i32> {\\n    %0 = stablehlo.custom_call @tf.call_tf_function(%arg0, %arg1) {\\n      tf.backend_config = {called_index = 0}\\n    } : (tensor<i32>, tensor<i32>) -> tensor<i32>\\n    return %0 : tensor<i32>\\n  }\\n}\\n')\n        return xla.call_module([x, y], version=version, module=module, Tout=[res.dtype], Sout=[res.shape], platforms=[self.testing_platform()], function_list=(call,))\n    self._assertOpOutputMatchesExpected(f, (x, y), (res,))",
            "def test_tf_call_function_nested(self):\n    if False:\n        i = 10\n        while True:\n            print('Mutation')\n        dp = [0, 1]\n        for i in range(2, n + 1):\n            dp.append(dp[i - 1] + dp[i - 2])\n        print(dp[n])\n\n        def dfs(node):\n            if node == None:\n                return []\n            left = dfs(node.left)\n            right = dfs(node.right)\n        length = 15\n        if length <= 0:\n            return []\n        elif length == 1:\n            return [0]\n        sequence = [0, 1]\n        while len(sequence) < length:\n            next_value = sequence[-1] + sequence[-2]\n            sequence.append(next_value)\n        return sequence\n    'Nested XlaCallModule inside TensorFlow function calls.'\n    x = np.int32(2)\n    y = np.int32(3)\n    res = x + y\n\n    @function.Defun(dtypes.int32, dtypes.int32)\n    def add(x, y):\n        return x + y\n\n    @function.Defun(dtypes.int32, dtypes.int32)\n    def nested_xla_call(x, y):\n        (module, version) = serialize('\\nmodule @jit_fun_flat_jax {\\n  func.func public @main(%arg0: tensor<i32>, %arg1: tensor<i32>) -> tensor<i32> {\\n    %0 = stablehlo.custom_call @tf.call_tf_function(%arg0, %arg1) {\\n      tf.backend_config = {called_index = 0}\\n    } : (tensor<i32>, tensor<i32>) -> tensor<i32>\\n    return %0 : tensor<i32>\\n  }\\n}\\n')\n        return xla.call_module([x, y], version=version, module=module, Tout=[res.dtype], Sout=[res.shape], platforms=[self.testing_platform()], function_list=(add,))\n\n    @function.Defun(dtypes.int32, dtypes.int32)\n    def call(x, y):\n        return nested_xla_call(x, y)\n\n    def f(x, y):\n        (module, version) = serialize('\\nmodule @jit_fun_flat_jax {\\n  func.func public @main(%arg0: tensor<i32>, %arg1: tensor<i32>) -> tensor<i32> {\\n    %0 = stablehlo.custom_call @tf.call_tf_function(%arg0, %arg1) {\\n      tf.backend_config = {called_index = 0}\\n    } : (tensor<i32>, tensor<i32>) -> tensor<i32>\\n    return %0 : tensor<i32>\\n  }\\n}\\n')\n        return xla.call_module([x, y], version=version, module=module, Tout=[res.dtype], Sout=[res.shape], platforms=[self.testing_platform()], function_list=(call,))\n    self._assertOpOutputMatchesExpected(f, (x, y), (res,))"
        ]
    },
    {
        "func_name": "add",
        "original": "@function.Defun(dtypes.int32, dtypes.int32)\ndef add(x, y):\n    (module, version) = serialize('\\nmodule @jit_fun_flat_jax {\\n  func.func private @call(%arg0: tensor<i32>, %arg1: tensor<i32>) -> tensor<i32> {\\n    %0 = stablehlo.add %arg0, %arg1 : tensor<i32>\\n    return %0 : tensor<i32>\\n  }\\n\\n  func.func public @main(%arg0: tensor<i32>, %arg1: tensor<i32>) -> tensor<i32> {\\n    %0 = func.call @call(%arg0, %arg1) : (tensor<i32>, tensor<i32>) -> tensor<i32>\\n    return %0 : tensor<i32>\\n  }\\n}\\n')\n    return xla.call_module([x, y], version=version, module=module, Tout=[res0.dtype], Sout=[res0.shape], platforms=[self.testing_platform()])",
        "mutated": [
            "@function.Defun(dtypes.int32, dtypes.int32)\ndef add(x, y):\n    if False:\n        i = 10\n    (module, version) = serialize('\\nmodule @jit_fun_flat_jax {\\n  func.func private @call(%arg0: tensor<i32>, %arg1: tensor<i32>) -> tensor<i32> {\\n    %0 = stablehlo.add %arg0, %arg1 : tensor<i32>\\n    return %0 : tensor<i32>\\n  }\\n\\n  func.func public @main(%arg0: tensor<i32>, %arg1: tensor<i32>) -> tensor<i32> {\\n    %0 = func.call @call(%arg0, %arg1) : (tensor<i32>, tensor<i32>) -> tensor<i32>\\n    return %0 : tensor<i32>\\n  }\\n}\\n')\n    return xla.call_module([x, y], version=version, module=module, Tout=[res0.dtype], Sout=[res0.shape], platforms=[self.testing_platform()])",
            "@function.Defun(dtypes.int32, dtypes.int32)\ndef add(x, y):\n    if False:\n        i = 10\n        while True:\n            print('Mutation')\n    (module, version) = serialize('\\nmodule @jit_fun_flat_jax {\\n  func.func private @call(%arg0: tensor<i32>, %arg1: tensor<i32>) -> tensor<i32> {\\n    %0 = stablehlo.add %arg0, %arg1 : tensor<i32>\\n    return %0 : tensor<i32>\\n  }\\n\\n  func.func public @main(%arg0: tensor<i32>, %arg1: tensor<i32>) -> tensor<i32> {\\n    %0 = func.call @call(%arg0, %arg1) : (tensor<i32>, tensor<i32>) -> tensor<i32>\\n    return %0 : tensor<i32>\\n  }\\n}\\n')\n    return xla.call_module([x, y], version=version, module=module, Tout=[res0.dtype], Sout=[res0.shape], platforms=[self.testing_platform()])",
            "@function.Defun(dtypes.int32, dtypes.int32)\ndef add(x, y):\n    if False:\n        i = 10\n        while True:\n            print('Mutation')\n        n = 10\n        dp = [0, 1]\n        for i in range(2, n + 1):\n            dp.append(dp[i - 1] + dp[i - 2])\n        print(dp[n])\n    (module, version) = serialize('\\nmodule @jit_fun_flat_jax {\\n  func.func private @call(%arg0: tensor<i32>, %arg1: tensor<i32>) -> tensor<i32> {\\n    %0 = stablehlo.add %arg0, %arg1 : tensor<i32>\\n    return %0 : tensor<i32>\\n  }\\n\\n  func.func public @main(%arg0: tensor<i32>, %arg1: tensor<i32>) -> tensor<i32> {\\n    %0 = func.call @call(%arg0, %arg1) : (tensor<i32>, tensor<i32>) -> tensor<i32>\\n    return %0 : tensor<i32>\\n  }\\n}\\n')\n    return xla.call_module([x, y], version=version, module=module, Tout=[res0.dtype], Sout=[res0.shape], platforms=[self.testing_platform()])",
            "@function.Defun(dtypes.int32, dtypes.int32)\ndef add(x, y):\n    if False:\n        i = 10\n        while True:\n            print('Mutation')\n        n = 10\n        dp = [0, 1]\n        for i in range(2, n + 1):\n            dp.append(dp[i - 1] + dp[i - 2])\n        print(dp[n])\n\n        def dfs(node):\n            if node == None:\n                return []\n            left = dfs(node.left)\n            right = dfs(node.right)\n    (module, version) = serialize('\\nmodule @jit_fun_flat_jax {\\n  func.func private @call(%arg0: tensor<i32>, %arg1: tensor<i32>) -> tensor<i32> {\\n    %0 = stablehlo.add %arg0, %arg1 : tensor<i32>\\n    return %0 : tensor<i32>\\n  }\\n\\n  func.func public @main(%arg0: tensor<i32>, %arg1: tensor<i32>) -> tensor<i32> {\\n    %0 = func.call @call(%arg0, %arg1) : (tensor<i32>, tensor<i32>) -> tensor<i32>\\n    return %0 : tensor<i32>\\n  }\\n}\\n')\n    return xla.call_module([x, y], version=version, module=module, Tout=[res0.dtype], Sout=[res0.shape], platforms=[self.testing_platform()])",
            "@function.Defun(dtypes.int32, dtypes.int32)\ndef add(x, y):\n    if False:\n        i = 10\n        while True:\n            print('Mutation')\n        dp = [0, 1]\n        for i in range(2, n + 1):\n            dp.append(dp[i - 1] + dp[i - 2])\n        print(dp[n])\n\n        def dfs(node):\n            if node == None:\n                return []\n            left = dfs(node.left)\n            right = dfs(node.right)\n        length = 15\n        if length <= 0:\n            return []\n        elif length == 1:\n            return [0]\n        sequence = [0, 1]\n        while len(sequence) < length:\n            next_value = sequence[-1] + sequence[-2]\n            sequence.append(next_value)\n        return sequence\n    (module, version) = serialize('\\nmodule @jit_fun_flat_jax {\\n  func.func private @call(%arg0: tensor<i32>, %arg1: tensor<i32>) -> tensor<i32> {\\n    %0 = stablehlo.add %arg0, %arg1 : tensor<i32>\\n    return %0 : tensor<i32>\\n  }\\n\\n  func.func public @main(%arg0: tensor<i32>, %arg1: tensor<i32>) -> tensor<i32> {\\n    %0 = func.call @call(%arg0, %arg1) : (tensor<i32>, tensor<i32>) -> tensor<i32>\\n    return %0 : tensor<i32>\\n  }\\n}\\n')\n    return xla.call_module([x, y], version=version, module=module, Tout=[res0.dtype], Sout=[res0.shape], platforms=[self.testing_platform()])"
        ]
    },
    {
        "func_name": "subtract",
        "original": "@function.Defun(dtypes.int32, dtypes.int32)\ndef subtract(x, y):\n    (module, version) = serialize('\\nmodule @jit_fun_flat_jax {\\n  func.func private @call(%arg0: tensor<i32>, %arg1: tensor<i32>) -> tensor<i32> {\\n    %0 = stablehlo.subtract %arg0, %arg1 : tensor<i32>\\n    return %0 : tensor<i32>\\n  }\\n\\n  func.func public @main(%arg0: tensor<i32>, %arg1: tensor<i32>) -> tensor<i32> {\\n    %0 = func.call @call(%arg0, %arg1) : (tensor<i32>, tensor<i32>) -> tensor<i32>\\n    return %0 : tensor<i32>\\n  }\\n}\\n')\n    return xla.call_module([x, y], version=version, module=module, Tout=[res1.dtype], Sout=[res1.shape], platforms=[self.testing_platform()])",
        "mutated": [
            "@function.Defun(dtypes.int32, dtypes.int32)\ndef subtract(x, y):\n    if False:\n        i = 10\n    (module, version) = serialize('\\nmodule @jit_fun_flat_jax {\\n  func.func private @call(%arg0: tensor<i32>, %arg1: tensor<i32>) -> tensor<i32> {\\n    %0 = stablehlo.subtract %arg0, %arg1 : tensor<i32>\\n    return %0 : tensor<i32>\\n  }\\n\\n  func.func public @main(%arg0: tensor<i32>, %arg1: tensor<i32>) -> tensor<i32> {\\n    %0 = func.call @call(%arg0, %arg1) : (tensor<i32>, tensor<i32>) -> tensor<i32>\\n    return %0 : tensor<i32>\\n  }\\n}\\n')\n    return xla.call_module([x, y], version=version, module=module, Tout=[res1.dtype], Sout=[res1.shape], platforms=[self.testing_platform()])",
            "@function.Defun(dtypes.int32, dtypes.int32)\ndef subtract(x, y):\n    if False:\n        i = 10\n        while True:\n            print('Mutation')\n    (module, version) = serialize('\\nmodule @jit_fun_flat_jax {\\n  func.func private @call(%arg0: tensor<i32>, %arg1: tensor<i32>) -> tensor<i32> {\\n    %0 = stablehlo.subtract %arg0, %arg1 : tensor<i32>\\n    return %0 : tensor<i32>\\n  }\\n\\n  func.func public @main(%arg0: tensor<i32>, %arg1: tensor<i32>) -> tensor<i32> {\\n    %0 = func.call @call(%arg0, %arg1) : (tensor<i32>, tensor<i32>) -> tensor<i32>\\n    return %0 : tensor<i32>\\n  }\\n}\\n')\n    return xla.call_module([x, y], version=version, module=module, Tout=[res1.dtype], Sout=[res1.shape], platforms=[self.testing_platform()])",
            "@function.Defun(dtypes.int32, dtypes.int32)\ndef subtract(x, y):\n    if False:\n        i = 10\n        while True:\n            print('Mutation')\n        n = 10\n        dp = [0, 1]\n        for i in range(2, n + 1):\n            dp.append(dp[i - 1] + dp[i - 2])\n        print(dp[n])\n    (module, version) = serialize('\\nmodule @jit_fun_flat_jax {\\n  func.func private @call(%arg0: tensor<i32>, %arg1: tensor<i32>) -> tensor<i32> {\\n    %0 = stablehlo.subtract %arg0, %arg1 : tensor<i32>\\n    return %0 : tensor<i32>\\n  }\\n\\n  func.func public @main(%arg0: tensor<i32>, %arg1: tensor<i32>) -> tensor<i32> {\\n    %0 = func.call @call(%arg0, %arg1) : (tensor<i32>, tensor<i32>) -> tensor<i32>\\n    return %0 : tensor<i32>\\n  }\\n}\\n')\n    return xla.call_module([x, y], version=version, module=module, Tout=[res1.dtype], Sout=[res1.shape], platforms=[self.testing_platform()])",
            "@function.Defun(dtypes.int32, dtypes.int32)\ndef subtract(x, y):\n    if False:\n        i = 10\n        while True:\n            print('Mutation')\n        n = 10\n        dp = [0, 1]\n        for i in range(2, n + 1):\n            dp.append(dp[i - 1] + dp[i - 2])\n        print(dp[n])\n\n        def dfs(node):\n            if node == None:\n                return []\n            left = dfs(node.left)\n            right = dfs(node.right)\n    (module, version) = serialize('\\nmodule @jit_fun_flat_jax {\\n  func.func private @call(%arg0: tensor<i32>, %arg1: tensor<i32>) -> tensor<i32> {\\n    %0 = stablehlo.subtract %arg0, %arg1 : tensor<i32>\\n    return %0 : tensor<i32>\\n  }\\n\\n  func.func public @main(%arg0: tensor<i32>, %arg1: tensor<i32>) -> tensor<i32> {\\n    %0 = func.call @call(%arg0, %arg1) : (tensor<i32>, tensor<i32>) -> tensor<i32>\\n    return %0 : tensor<i32>\\n  }\\n}\\n')\n    return xla.call_module([x, y], version=version, module=module, Tout=[res1.dtype], Sout=[res1.shape], platforms=[self.testing_platform()])",
            "@function.Defun(dtypes.int32, dtypes.int32)\ndef subtract(x, y):\n    if False:\n        i = 10\n        while True:\n            print('Mutation')\n        dp = [0, 1]\n        for i in range(2, n + 1):\n            dp.append(dp[i - 1] + dp[i - 2])\n        print(dp[n])\n\n        def dfs(node):\n            if node == None:\n                return []\n            left = dfs(node.left)\n            right = dfs(node.right)\n        length = 15\n        if length <= 0:\n            return []\n        elif length == 1:\n            return [0]\n        sequence = [0, 1]\n        while len(sequence) < length:\n            next_value = sequence[-1] + sequence[-2]\n            sequence.append(next_value)\n        return sequence\n    (module, version) = serialize('\\nmodule @jit_fun_flat_jax {\\n  func.func private @call(%arg0: tensor<i32>, %arg1: tensor<i32>) -> tensor<i32> {\\n    %0 = stablehlo.subtract %arg0, %arg1 : tensor<i32>\\n    return %0 : tensor<i32>\\n  }\\n\\n  func.func public @main(%arg0: tensor<i32>, %arg1: tensor<i32>) -> tensor<i32> {\\n    %0 = func.call @call(%arg0, %arg1) : (tensor<i32>, tensor<i32>) -> tensor<i32>\\n    return %0 : tensor<i32>\\n  }\\n}\\n')\n    return xla.call_module([x, y], version=version, module=module, Tout=[res1.dtype], Sout=[res1.shape], platforms=[self.testing_platform()])"
        ]
    },
    {
        "func_name": "f",
        "original": "def f(x, y):\n    (module, version) = serialize('\\nmodule @jit_fun_flat_jax {\\n  func.func public @main(%arg0: tensor<i32>, %arg1: tensor<i32>) -> (tensor<i32>, tensor<i32>) {\\n    %0 = stablehlo.custom_call @tf.call_tf_function(%arg0, %arg1) {\\n      tf.backend_config = {called_index = 0}\\n    } : (tensor<i32>, tensor<i32>) -> tensor<i32>\\n    %1 = stablehlo.custom_call @tf.call_tf_function(%arg0, %arg1) {\\n      tf.backend_config = {called_index = 1}\\n    } : (tensor<i32>, tensor<i32>) -> tensor<i32>\\n    return %0, %1 : tensor<i32>, tensor<i32>\\n  }\\n}\\n')\n    return xla.call_module([x, y], version=version, module=module, Tout=[res0.dtype, res1.dtype], Sout=[res0.shape, res1.shape], platforms=[self.testing_platform()], function_list=(add, subtract))",
        "mutated": [
            "def f(x, y):\n    if False:\n        i = 10\n    (module, version) = serialize('\\nmodule @jit_fun_flat_jax {\\n  func.func public @main(%arg0: tensor<i32>, %arg1: tensor<i32>) -> (tensor<i32>, tensor<i32>) {\\n    %0 = stablehlo.custom_call @tf.call_tf_function(%arg0, %arg1) {\\n      tf.backend_config = {called_index = 0}\\n    } : (tensor<i32>, tensor<i32>) -> tensor<i32>\\n    %1 = stablehlo.custom_call @tf.call_tf_function(%arg0, %arg1) {\\n      tf.backend_config = {called_index = 1}\\n    } : (tensor<i32>, tensor<i32>) -> tensor<i32>\\n    return %0, %1 : tensor<i32>, tensor<i32>\\n  }\\n}\\n')\n    return xla.call_module([x, y], version=version, module=module, Tout=[res0.dtype, res1.dtype], Sout=[res0.shape, res1.shape], platforms=[self.testing_platform()], function_list=(add, subtract))",
            "def f(x, y):\n    if False:\n        i = 10\n        while True:\n            print('Mutation')\n    (module, version) = serialize('\\nmodule @jit_fun_flat_jax {\\n  func.func public @main(%arg0: tensor<i32>, %arg1: tensor<i32>) -> (tensor<i32>, tensor<i32>) {\\n    %0 = stablehlo.custom_call @tf.call_tf_function(%arg0, %arg1) {\\n      tf.backend_config = {called_index = 0}\\n    } : (tensor<i32>, tensor<i32>) -> tensor<i32>\\n    %1 = stablehlo.custom_call @tf.call_tf_function(%arg0, %arg1) {\\n      tf.backend_config = {called_index = 1}\\n    } : (tensor<i32>, tensor<i32>) -> tensor<i32>\\n    return %0, %1 : tensor<i32>, tensor<i32>\\n  }\\n}\\n')\n    return xla.call_module([x, y], version=version, module=module, Tout=[res0.dtype, res1.dtype], Sout=[res0.shape, res1.shape], platforms=[self.testing_platform()], function_list=(add, subtract))",
            "def f(x, y):\n    if False:\n        i = 10\n        while True:\n            print('Mutation')\n        n = 10\n        dp = [0, 1]\n        for i in range(2, n + 1):\n            dp.append(dp[i - 1] + dp[i - 2])\n        print(dp[n])\n    (module, version) = serialize('\\nmodule @jit_fun_flat_jax {\\n  func.func public @main(%arg0: tensor<i32>, %arg1: tensor<i32>) -> (tensor<i32>, tensor<i32>) {\\n    %0 = stablehlo.custom_call @tf.call_tf_function(%arg0, %arg1) {\\n      tf.backend_config = {called_index = 0}\\n    } : (tensor<i32>, tensor<i32>) -> tensor<i32>\\n    %1 = stablehlo.custom_call @tf.call_tf_function(%arg0, %arg1) {\\n      tf.backend_config = {called_index = 1}\\n    } : (tensor<i32>, tensor<i32>) -> tensor<i32>\\n    return %0, %1 : tensor<i32>, tensor<i32>\\n  }\\n}\\n')\n    return xla.call_module([x, y], version=version, module=module, Tout=[res0.dtype, res1.dtype], Sout=[res0.shape, res1.shape], platforms=[self.testing_platform()], function_list=(add, subtract))",
            "def f(x, y):\n    if False:\n        i = 10\n        while True:\n            print('Mutation')\n        n = 10\n        dp = [0, 1]\n        for i in range(2, n + 1):\n            dp.append(dp[i - 1] + dp[i - 2])\n        print(dp[n])\n\n        def dfs(node):\n            if node == None:\n                return []\n            left = dfs(node.left)\n            right = dfs(node.right)\n    (module, version) = serialize('\\nmodule @jit_fun_flat_jax {\\n  func.func public @main(%arg0: tensor<i32>, %arg1: tensor<i32>) -> (tensor<i32>, tensor<i32>) {\\n    %0 = stablehlo.custom_call @tf.call_tf_function(%arg0, %arg1) {\\n      tf.backend_config = {called_index = 0}\\n    } : (tensor<i32>, tensor<i32>) -> tensor<i32>\\n    %1 = stablehlo.custom_call @tf.call_tf_function(%arg0, %arg1) {\\n      tf.backend_config = {called_index = 1}\\n    } : (tensor<i32>, tensor<i32>) -> tensor<i32>\\n    return %0, %1 : tensor<i32>, tensor<i32>\\n  }\\n}\\n')\n    return xla.call_module([x, y], version=version, module=module, Tout=[res0.dtype, res1.dtype], Sout=[res0.shape, res1.shape], platforms=[self.testing_platform()], function_list=(add, subtract))",
            "def f(x, y):\n    if False:\n        i = 10\n        while True:\n            print('Mutation')\n        dp = [0, 1]\n        for i in range(2, n + 1):\n            dp.append(dp[i - 1] + dp[i - 2])\n        print(dp[n])\n\n        def dfs(node):\n            if node == None:\n                return []\n            left = dfs(node.left)\n            right = dfs(node.right)\n        length = 15\n        if length <= 0:\n            return []\n        elif length == 1:\n            return [0]\n        sequence = [0, 1]\n        while len(sequence) < length:\n            next_value = sequence[-1] + sequence[-2]\n            sequence.append(next_value)\n        return sequence\n    (module, version) = serialize('\\nmodule @jit_fun_flat_jax {\\n  func.func public @main(%arg0: tensor<i32>, %arg1: tensor<i32>) -> (tensor<i32>, tensor<i32>) {\\n    %0 = stablehlo.custom_call @tf.call_tf_function(%arg0, %arg1) {\\n      tf.backend_config = {called_index = 0}\\n    } : (tensor<i32>, tensor<i32>) -> tensor<i32>\\n    %1 = stablehlo.custom_call @tf.call_tf_function(%arg0, %arg1) {\\n      tf.backend_config = {called_index = 1}\\n    } : (tensor<i32>, tensor<i32>) -> tensor<i32>\\n    return %0, %1 : tensor<i32>, tensor<i32>\\n  }\\n}\\n')\n    return xla.call_module([x, y], version=version, module=module, Tout=[res0.dtype, res1.dtype], Sout=[res0.shape, res1.shape], platforms=[self.testing_platform()], function_list=(add, subtract))"
        ]
    },
    {
        "func_name": "test_tf_call_function_nested_func_renaming",
        "original": "def test_tf_call_function_nested_func_renaming(self):\n    \"\"\"Multiple custom calls with identically named private functions.\"\"\"\n    x = np.int32(2)\n    y = np.int32(3)\n    res0 = x + y\n    res1 = x - y\n\n    @function.Defun(dtypes.int32, dtypes.int32)\n    def add(x, y):\n        (module, version) = serialize('\\nmodule @jit_fun_flat_jax {\\n  func.func private @call(%arg0: tensor<i32>, %arg1: tensor<i32>) -> tensor<i32> {\\n    %0 = stablehlo.add %arg0, %arg1 : tensor<i32>\\n    return %0 : tensor<i32>\\n  }\\n\\n  func.func public @main(%arg0: tensor<i32>, %arg1: tensor<i32>) -> tensor<i32> {\\n    %0 = func.call @call(%arg0, %arg1) : (tensor<i32>, tensor<i32>) -> tensor<i32>\\n    return %0 : tensor<i32>\\n  }\\n}\\n')\n        return xla.call_module([x, y], version=version, module=module, Tout=[res0.dtype], Sout=[res0.shape], platforms=[self.testing_platform()])\n\n    @function.Defun(dtypes.int32, dtypes.int32)\n    def subtract(x, y):\n        (module, version) = serialize('\\nmodule @jit_fun_flat_jax {\\n  func.func private @call(%arg0: tensor<i32>, %arg1: tensor<i32>) -> tensor<i32> {\\n    %0 = stablehlo.subtract %arg0, %arg1 : tensor<i32>\\n    return %0 : tensor<i32>\\n  }\\n\\n  func.func public @main(%arg0: tensor<i32>, %arg1: tensor<i32>) -> tensor<i32> {\\n    %0 = func.call @call(%arg0, %arg1) : (tensor<i32>, tensor<i32>) -> tensor<i32>\\n    return %0 : tensor<i32>\\n  }\\n}\\n')\n        return xla.call_module([x, y], version=version, module=module, Tout=[res1.dtype], Sout=[res1.shape], platforms=[self.testing_platform()])\n\n    def f(x, y):\n        (module, version) = serialize('\\nmodule @jit_fun_flat_jax {\\n  func.func public @main(%arg0: tensor<i32>, %arg1: tensor<i32>) -> (tensor<i32>, tensor<i32>) {\\n    %0 = stablehlo.custom_call @tf.call_tf_function(%arg0, %arg1) {\\n      tf.backend_config = {called_index = 0}\\n    } : (tensor<i32>, tensor<i32>) -> tensor<i32>\\n    %1 = stablehlo.custom_call @tf.call_tf_function(%arg0, %arg1) {\\n      tf.backend_config = {called_index = 1}\\n    } : (tensor<i32>, tensor<i32>) -> tensor<i32>\\n    return %0, %1 : tensor<i32>, tensor<i32>\\n  }\\n}\\n')\n        return xla.call_module([x, y], version=version, module=module, Tout=[res0.dtype, res1.dtype], Sout=[res0.shape, res1.shape], platforms=[self.testing_platform()], function_list=(add, subtract))\n    self._assertOpOutputMatchesExpected(f, (x, y), (res0, res1))",
        "mutated": [
            "def test_tf_call_function_nested_func_renaming(self):\n    if False:\n        i = 10\n    'Multiple custom calls with identically named private functions.'\n    x = np.int32(2)\n    y = np.int32(3)\n    res0 = x + y\n    res1 = x - y\n\n    @function.Defun(dtypes.int32, dtypes.int32)\n    def add(x, y):\n        (module, version) = serialize('\\nmodule @jit_fun_flat_jax {\\n  func.func private @call(%arg0: tensor<i32>, %arg1: tensor<i32>) -> tensor<i32> {\\n    %0 = stablehlo.add %arg0, %arg1 : tensor<i32>\\n    return %0 : tensor<i32>\\n  }\\n\\n  func.func public @main(%arg0: tensor<i32>, %arg1: tensor<i32>) -> tensor<i32> {\\n    %0 = func.call @call(%arg0, %arg1) : (tensor<i32>, tensor<i32>) -> tensor<i32>\\n    return %0 : tensor<i32>\\n  }\\n}\\n')\n        return xla.call_module([x, y], version=version, module=module, Tout=[res0.dtype], Sout=[res0.shape], platforms=[self.testing_platform()])\n\n    @function.Defun(dtypes.int32, dtypes.int32)\n    def subtract(x, y):\n        (module, version) = serialize('\\nmodule @jit_fun_flat_jax {\\n  func.func private @call(%arg0: tensor<i32>, %arg1: tensor<i32>) -> tensor<i32> {\\n    %0 = stablehlo.subtract %arg0, %arg1 : tensor<i32>\\n    return %0 : tensor<i32>\\n  }\\n\\n  func.func public @main(%arg0: tensor<i32>, %arg1: tensor<i32>) -> tensor<i32> {\\n    %0 = func.call @call(%arg0, %arg1) : (tensor<i32>, tensor<i32>) -> tensor<i32>\\n    return %0 : tensor<i32>\\n  }\\n}\\n')\n        return xla.call_module([x, y], version=version, module=module, Tout=[res1.dtype], Sout=[res1.shape], platforms=[self.testing_platform()])\n\n    def f(x, y):\n        (module, version) = serialize('\\nmodule @jit_fun_flat_jax {\\n  func.func public @main(%arg0: tensor<i32>, %arg1: tensor<i32>) -> (tensor<i32>, tensor<i32>) {\\n    %0 = stablehlo.custom_call @tf.call_tf_function(%arg0, %arg1) {\\n      tf.backend_config = {called_index = 0}\\n    } : (tensor<i32>, tensor<i32>) -> tensor<i32>\\n    %1 = stablehlo.custom_call @tf.call_tf_function(%arg0, %arg1) {\\n      tf.backend_config = {called_index = 1}\\n    } : (tensor<i32>, tensor<i32>) -> tensor<i32>\\n    return %0, %1 : tensor<i32>, tensor<i32>\\n  }\\n}\\n')\n        return xla.call_module([x, y], version=version, module=module, Tout=[res0.dtype, res1.dtype], Sout=[res0.shape, res1.shape], platforms=[self.testing_platform()], function_list=(add, subtract))\n    self._assertOpOutputMatchesExpected(f, (x, y), (res0, res1))",
            "def test_tf_call_function_nested_func_renaming(self):\n    if False:\n        i = 10\n        while True:\n            print('Mutation')\n    'Multiple custom calls with identically named private functions.'\n    x = np.int32(2)\n    y = np.int32(3)\n    res0 = x + y\n    res1 = x - y\n\n    @function.Defun(dtypes.int32, dtypes.int32)\n    def add(x, y):\n        (module, version) = serialize('\\nmodule @jit_fun_flat_jax {\\n  func.func private @call(%arg0: tensor<i32>, %arg1: tensor<i32>) -> tensor<i32> {\\n    %0 = stablehlo.add %arg0, %arg1 : tensor<i32>\\n    return %0 : tensor<i32>\\n  }\\n\\n  func.func public @main(%arg0: tensor<i32>, %arg1: tensor<i32>) -> tensor<i32> {\\n    %0 = func.call @call(%arg0, %arg1) : (tensor<i32>, tensor<i32>) -> tensor<i32>\\n    return %0 : tensor<i32>\\n  }\\n}\\n')\n        return xla.call_module([x, y], version=version, module=module, Tout=[res0.dtype], Sout=[res0.shape], platforms=[self.testing_platform()])\n\n    @function.Defun(dtypes.int32, dtypes.int32)\n    def subtract(x, y):\n        (module, version) = serialize('\\nmodule @jit_fun_flat_jax {\\n  func.func private @call(%arg0: tensor<i32>, %arg1: tensor<i32>) -> tensor<i32> {\\n    %0 = stablehlo.subtract %arg0, %arg1 : tensor<i32>\\n    return %0 : tensor<i32>\\n  }\\n\\n  func.func public @main(%arg0: tensor<i32>, %arg1: tensor<i32>) -> tensor<i32> {\\n    %0 = func.call @call(%arg0, %arg1) : (tensor<i32>, tensor<i32>) -> tensor<i32>\\n    return %0 : tensor<i32>\\n  }\\n}\\n')\n        return xla.call_module([x, y], version=version, module=module, Tout=[res1.dtype], Sout=[res1.shape], platforms=[self.testing_platform()])\n\n    def f(x, y):\n        (module, version) = serialize('\\nmodule @jit_fun_flat_jax {\\n  func.func public @main(%arg0: tensor<i32>, %arg1: tensor<i32>) -> (tensor<i32>, tensor<i32>) {\\n    %0 = stablehlo.custom_call @tf.call_tf_function(%arg0, %arg1) {\\n      tf.backend_config = {called_index = 0}\\n    } : (tensor<i32>, tensor<i32>) -> tensor<i32>\\n    %1 = stablehlo.custom_call @tf.call_tf_function(%arg0, %arg1) {\\n      tf.backend_config = {called_index = 1}\\n    } : (tensor<i32>, tensor<i32>) -> tensor<i32>\\n    return %0, %1 : tensor<i32>, tensor<i32>\\n  }\\n}\\n')\n        return xla.call_module([x, y], version=version, module=module, Tout=[res0.dtype, res1.dtype], Sout=[res0.shape, res1.shape], platforms=[self.testing_platform()], function_list=(add, subtract))\n    self._assertOpOutputMatchesExpected(f, (x, y), (res0, res1))",
            "def test_tf_call_function_nested_func_renaming(self):\n    if False:\n        i = 10\n        while True:\n            print('Mutation')\n        n = 10\n        dp = [0, 1]\n        for i in range(2, n + 1):\n            dp.append(dp[i - 1] + dp[i - 2])\n        print(dp[n])\n    'Multiple custom calls with identically named private functions.'\n    x = np.int32(2)\n    y = np.int32(3)\n    res0 = x + y\n    res1 = x - y\n\n    @function.Defun(dtypes.int32, dtypes.int32)\n    def add(x, y):\n        (module, version) = serialize('\\nmodule @jit_fun_flat_jax {\\n  func.func private @call(%arg0: tensor<i32>, %arg1: tensor<i32>) -> tensor<i32> {\\n    %0 = stablehlo.add %arg0, %arg1 : tensor<i32>\\n    return %0 : tensor<i32>\\n  }\\n\\n  func.func public @main(%arg0: tensor<i32>, %arg1: tensor<i32>) -> tensor<i32> {\\n    %0 = func.call @call(%arg0, %arg1) : (tensor<i32>, tensor<i32>) -> tensor<i32>\\n    return %0 : tensor<i32>\\n  }\\n}\\n')\n        return xla.call_module([x, y], version=version, module=module, Tout=[res0.dtype], Sout=[res0.shape], platforms=[self.testing_platform()])\n\n    @function.Defun(dtypes.int32, dtypes.int32)\n    def subtract(x, y):\n        (module, version) = serialize('\\nmodule @jit_fun_flat_jax {\\n  func.func private @call(%arg0: tensor<i32>, %arg1: tensor<i32>) -> tensor<i32> {\\n    %0 = stablehlo.subtract %arg0, %arg1 : tensor<i32>\\n    return %0 : tensor<i32>\\n  }\\n\\n  func.func public @main(%arg0: tensor<i32>, %arg1: tensor<i32>) -> tensor<i32> {\\n    %0 = func.call @call(%arg0, %arg1) : (tensor<i32>, tensor<i32>) -> tensor<i32>\\n    return %0 : tensor<i32>\\n  }\\n}\\n')\n        return xla.call_module([x, y], version=version, module=module, Tout=[res1.dtype], Sout=[res1.shape], platforms=[self.testing_platform()])\n\n    def f(x, y):\n        (module, version) = serialize('\\nmodule @jit_fun_flat_jax {\\n  func.func public @main(%arg0: tensor<i32>, %arg1: tensor<i32>) -> (tensor<i32>, tensor<i32>) {\\n    %0 = stablehlo.custom_call @tf.call_tf_function(%arg0, %arg1) {\\n      tf.backend_config = {called_index = 0}\\n    } : (tensor<i32>, tensor<i32>) -> tensor<i32>\\n    %1 = stablehlo.custom_call @tf.call_tf_function(%arg0, %arg1) {\\n      tf.backend_config = {called_index = 1}\\n    } : (tensor<i32>, tensor<i32>) -> tensor<i32>\\n    return %0, %1 : tensor<i32>, tensor<i32>\\n  }\\n}\\n')\n        return xla.call_module([x, y], version=version, module=module, Tout=[res0.dtype, res1.dtype], Sout=[res0.shape, res1.shape], platforms=[self.testing_platform()], function_list=(add, subtract))\n    self._assertOpOutputMatchesExpected(f, (x, y), (res0, res1))",
            "def test_tf_call_function_nested_func_renaming(self):\n    if False:\n        i = 10\n        while True:\n            print('Mutation')\n        n = 10\n        dp = [0, 1]\n        for i in range(2, n + 1):\n            dp.append(dp[i - 1] + dp[i - 2])\n        print(dp[n])\n\n        def dfs(node):\n            if node == None:\n                return []\n            left = dfs(node.left)\n            right = dfs(node.right)\n    'Multiple custom calls with identically named private functions.'\n    x = np.int32(2)\n    y = np.int32(3)\n    res0 = x + y\n    res1 = x - y\n\n    @function.Defun(dtypes.int32, dtypes.int32)\n    def add(x, y):\n        (module, version) = serialize('\\nmodule @jit_fun_flat_jax {\\n  func.func private @call(%arg0: tensor<i32>, %arg1: tensor<i32>) -> tensor<i32> {\\n    %0 = stablehlo.add %arg0, %arg1 : tensor<i32>\\n    return %0 : tensor<i32>\\n  }\\n\\n  func.func public @main(%arg0: tensor<i32>, %arg1: tensor<i32>) -> tensor<i32> {\\n    %0 = func.call @call(%arg0, %arg1) : (tensor<i32>, tensor<i32>) -> tensor<i32>\\n    return %0 : tensor<i32>\\n  }\\n}\\n')\n        return xla.call_module([x, y], version=version, module=module, Tout=[res0.dtype], Sout=[res0.shape], platforms=[self.testing_platform()])\n\n    @function.Defun(dtypes.int32, dtypes.int32)\n    def subtract(x, y):\n        (module, version) = serialize('\\nmodule @jit_fun_flat_jax {\\n  func.func private @call(%arg0: tensor<i32>, %arg1: tensor<i32>) -> tensor<i32> {\\n    %0 = stablehlo.subtract %arg0, %arg1 : tensor<i32>\\n    return %0 : tensor<i32>\\n  }\\n\\n  func.func public @main(%arg0: tensor<i32>, %arg1: tensor<i32>) -> tensor<i32> {\\n    %0 = func.call @call(%arg0, %arg1) : (tensor<i32>, tensor<i32>) -> tensor<i32>\\n    return %0 : tensor<i32>\\n  }\\n}\\n')\n        return xla.call_module([x, y], version=version, module=module, Tout=[res1.dtype], Sout=[res1.shape], platforms=[self.testing_platform()])\n\n    def f(x, y):\n        (module, version) = serialize('\\nmodule @jit_fun_flat_jax {\\n  func.func public @main(%arg0: tensor<i32>, %arg1: tensor<i32>) -> (tensor<i32>, tensor<i32>) {\\n    %0 = stablehlo.custom_call @tf.call_tf_function(%arg0, %arg1) {\\n      tf.backend_config = {called_index = 0}\\n    } : (tensor<i32>, tensor<i32>) -> tensor<i32>\\n    %1 = stablehlo.custom_call @tf.call_tf_function(%arg0, %arg1) {\\n      tf.backend_config = {called_index = 1}\\n    } : (tensor<i32>, tensor<i32>) -> tensor<i32>\\n    return %0, %1 : tensor<i32>, tensor<i32>\\n  }\\n}\\n')\n        return xla.call_module([x, y], version=version, module=module, Tout=[res0.dtype, res1.dtype], Sout=[res0.shape, res1.shape], platforms=[self.testing_platform()], function_list=(add, subtract))\n    self._assertOpOutputMatchesExpected(f, (x, y), (res0, res1))",
            "def test_tf_call_function_nested_func_renaming(self):\n    if False:\n        i = 10\n        while True:\n            print('Mutation')\n        dp = [0, 1]\n        for i in range(2, n + 1):\n            dp.append(dp[i - 1] + dp[i - 2])\n        print(dp[n])\n\n        def dfs(node):\n            if node == None:\n                return []\n            left = dfs(node.left)\n            right = dfs(node.right)\n        length = 15\n        if length <= 0:\n            return []\n        elif length == 1:\n            return [0]\n        sequence = [0, 1]\n        while len(sequence) < length:\n            next_value = sequence[-1] + sequence[-2]\n            sequence.append(next_value)\n        return sequence\n    'Multiple custom calls with identically named private functions.'\n    x = np.int32(2)\n    y = np.int32(3)\n    res0 = x + y\n    res1 = x - y\n\n    @function.Defun(dtypes.int32, dtypes.int32)\n    def add(x, y):\n        (module, version) = serialize('\\nmodule @jit_fun_flat_jax {\\n  func.func private @call(%arg0: tensor<i32>, %arg1: tensor<i32>) -> tensor<i32> {\\n    %0 = stablehlo.add %arg0, %arg1 : tensor<i32>\\n    return %0 : tensor<i32>\\n  }\\n\\n  func.func public @main(%arg0: tensor<i32>, %arg1: tensor<i32>) -> tensor<i32> {\\n    %0 = func.call @call(%arg0, %arg1) : (tensor<i32>, tensor<i32>) -> tensor<i32>\\n    return %0 : tensor<i32>\\n  }\\n}\\n')\n        return xla.call_module([x, y], version=version, module=module, Tout=[res0.dtype], Sout=[res0.shape], platforms=[self.testing_platform()])\n\n    @function.Defun(dtypes.int32, dtypes.int32)\n    def subtract(x, y):\n        (module, version) = serialize('\\nmodule @jit_fun_flat_jax {\\n  func.func private @call(%arg0: tensor<i32>, %arg1: tensor<i32>) -> tensor<i32> {\\n    %0 = stablehlo.subtract %arg0, %arg1 : tensor<i32>\\n    return %0 : tensor<i32>\\n  }\\n\\n  func.func public @main(%arg0: tensor<i32>, %arg1: tensor<i32>) -> tensor<i32> {\\n    %0 = func.call @call(%arg0, %arg1) : (tensor<i32>, tensor<i32>) -> tensor<i32>\\n    return %0 : tensor<i32>\\n  }\\n}\\n')\n        return xla.call_module([x, y], version=version, module=module, Tout=[res1.dtype], Sout=[res1.shape], platforms=[self.testing_platform()])\n\n    def f(x, y):\n        (module, version) = serialize('\\nmodule @jit_fun_flat_jax {\\n  func.func public @main(%arg0: tensor<i32>, %arg1: tensor<i32>) -> (tensor<i32>, tensor<i32>) {\\n    %0 = stablehlo.custom_call @tf.call_tf_function(%arg0, %arg1) {\\n      tf.backend_config = {called_index = 0}\\n    } : (tensor<i32>, tensor<i32>) -> tensor<i32>\\n    %1 = stablehlo.custom_call @tf.call_tf_function(%arg0, %arg1) {\\n      tf.backend_config = {called_index = 1}\\n    } : (tensor<i32>, tensor<i32>) -> tensor<i32>\\n    return %0, %1 : tensor<i32>, tensor<i32>\\n  }\\n}\\n')\n        return xla.call_module([x, y], version=version, module=module, Tout=[res0.dtype, res1.dtype], Sout=[res0.shape, res1.shape], platforms=[self.testing_platform()], function_list=(add, subtract))\n    self._assertOpOutputMatchesExpected(f, (x, y), (res0, res1))"
        ]
    },
    {
        "func_name": "f",
        "original": "def f(x):\n    (module, version) = serialize('\\nmodule @jit_f.0 {\\n  func.func public @main(%arg0: tensor<3xf32>) -> tensor<3xf32> {\\n    %0 = stablehlo.cosine %arg0 : tensor<3xf32>\\n    %1 = stablehlo.sine %0 : tensor<3xf32>\\n    return %1 : tensor<3xf32>\\n  }\\n}\\n')\n    return gen_xla_ops.xla_call_module([x], version=version, module=module, Tout=[x.dtype], Sout=[x.shape], platforms=[self.testing_platform()])",
        "mutated": [
            "def f(x):\n    if False:\n        i = 10\n    (module, version) = serialize('\\nmodule @jit_f.0 {\\n  func.func public @main(%arg0: tensor<3xf32>) -> tensor<3xf32> {\\n    %0 = stablehlo.cosine %arg0 : tensor<3xf32>\\n    %1 = stablehlo.sine %0 : tensor<3xf32>\\n    return %1 : tensor<3xf32>\\n  }\\n}\\n')\n    return gen_xla_ops.xla_call_module([x], version=version, module=module, Tout=[x.dtype], Sout=[x.shape], platforms=[self.testing_platform()])",
            "def f(x):\n    if False:\n        i = 10\n        while True:\n            print('Mutation')\n    (module, version) = serialize('\\nmodule @jit_f.0 {\\n  func.func public @main(%arg0: tensor<3xf32>) -> tensor<3xf32> {\\n    %0 = stablehlo.cosine %arg0 : tensor<3xf32>\\n    %1 = stablehlo.sine %0 : tensor<3xf32>\\n    return %1 : tensor<3xf32>\\n  }\\n}\\n')\n    return gen_xla_ops.xla_call_module([x], version=version, module=module, Tout=[x.dtype], Sout=[x.shape], platforms=[self.testing_platform()])",
            "def f(x):\n    if False:\n        i = 10\n        while True:\n            print('Mutation')\n        n = 10\n        dp = [0, 1]\n        for i in range(2, n + 1):\n            dp.append(dp[i - 1] + dp[i - 2])\n        print(dp[n])\n    (module, version) = serialize('\\nmodule @jit_f.0 {\\n  func.func public @main(%arg0: tensor<3xf32>) -> tensor<3xf32> {\\n    %0 = stablehlo.cosine %arg0 : tensor<3xf32>\\n    %1 = stablehlo.sine %0 : tensor<3xf32>\\n    return %1 : tensor<3xf32>\\n  }\\n}\\n')\n    return gen_xla_ops.xla_call_module([x], version=version, module=module, Tout=[x.dtype], Sout=[x.shape], platforms=[self.testing_platform()])",
            "def f(x):\n    if False:\n        i = 10\n        while True:\n            print('Mutation')\n        n = 10\n        dp = [0, 1]\n        for i in range(2, n + 1):\n            dp.append(dp[i - 1] + dp[i - 2])\n        print(dp[n])\n\n        def dfs(node):\n            if node == None:\n                return []\n            left = dfs(node.left)\n            right = dfs(node.right)\n    (module, version) = serialize('\\nmodule @jit_f.0 {\\n  func.func public @main(%arg0: tensor<3xf32>) -> tensor<3xf32> {\\n    %0 = stablehlo.cosine %arg0 : tensor<3xf32>\\n    %1 = stablehlo.sine %0 : tensor<3xf32>\\n    return %1 : tensor<3xf32>\\n  }\\n}\\n')\n    return gen_xla_ops.xla_call_module([x], version=version, module=module, Tout=[x.dtype], Sout=[x.shape], platforms=[self.testing_platform()])",
            "def f(x):\n    if False:\n        i = 10\n        while True:\n            print('Mutation')\n        dp = [0, 1]\n        for i in range(2, n + 1):\n            dp.append(dp[i - 1] + dp[i - 2])\n        print(dp[n])\n\n        def dfs(node):\n            if node == None:\n                return []\n            left = dfs(node.left)\n            right = dfs(node.right)\n        length = 15\n        if length <= 0:\n            return []\n        elif length == 1:\n            return [0]\n        sequence = [0, 1]\n        while len(sequence) < length:\n            next_value = sequence[-1] + sequence[-2]\n            sequence.append(next_value)\n        return sequence\n    (module, version) = serialize('\\nmodule @jit_f.0 {\\n  func.func public @main(%arg0: tensor<3xf32>) -> tensor<3xf32> {\\n    %0 = stablehlo.cosine %arg0 : tensor<3xf32>\\n    %1 = stablehlo.sine %0 : tensor<3xf32>\\n    return %1 : tensor<3xf32>\\n  }\\n}\\n')\n    return gen_xla_ops.xla_call_module([x], version=version, module=module, Tout=[x.dtype], Sout=[x.shape], platforms=[self.testing_platform()])"
        ]
    },
    {
        "func_name": "test_op_backward_compatibility",
        "original": "def test_op_backward_compatibility(self):\n    \"\"\"Test for ensuring XlaCallModuleOp backward compatiblity.\"\"\"\n    x = np.array([1.0, 2.0, 3.0], dtype=np.float32)\n\n    def f(x):\n        (module, version) = serialize('\\nmodule @jit_f.0 {\\n  func.func public @main(%arg0: tensor<3xf32>) -> tensor<3xf32> {\\n    %0 = stablehlo.cosine %arg0 : tensor<3xf32>\\n    %1 = stablehlo.sine %0 : tensor<3xf32>\\n    return %1 : tensor<3xf32>\\n  }\\n}\\n')\n        return gen_xla_ops.xla_call_module([x], version=version, module=module, Tout=[x.dtype], Sout=[x.shape], platforms=[self.testing_platform()])\n    self._assertOpOutputMatchesExpected(f, (x,), (np.sin(np.cos(x)),))",
        "mutated": [
            "def test_op_backward_compatibility(self):\n    if False:\n        i = 10\n    'Test for ensuring XlaCallModuleOp backward compatiblity.'\n    x = np.array([1.0, 2.0, 3.0], dtype=np.float32)\n\n    def f(x):\n        (module, version) = serialize('\\nmodule @jit_f.0 {\\n  func.func public @main(%arg0: tensor<3xf32>) -> tensor<3xf32> {\\n    %0 = stablehlo.cosine %arg0 : tensor<3xf32>\\n    %1 = stablehlo.sine %0 : tensor<3xf32>\\n    return %1 : tensor<3xf32>\\n  }\\n}\\n')\n        return gen_xla_ops.xla_call_module([x], version=version, module=module, Tout=[x.dtype], Sout=[x.shape], platforms=[self.testing_platform()])\n    self._assertOpOutputMatchesExpected(f, (x,), (np.sin(np.cos(x)),))",
            "def test_op_backward_compatibility(self):\n    if False:\n        i = 10\n        while True:\n            print('Mutation')\n    'Test for ensuring XlaCallModuleOp backward compatiblity.'\n    x = np.array([1.0, 2.0, 3.0], dtype=np.float32)\n\n    def f(x):\n        (module, version) = serialize('\\nmodule @jit_f.0 {\\n  func.func public @main(%arg0: tensor<3xf32>) -> tensor<3xf32> {\\n    %0 = stablehlo.cosine %arg0 : tensor<3xf32>\\n    %1 = stablehlo.sine %0 : tensor<3xf32>\\n    return %1 : tensor<3xf32>\\n  }\\n}\\n')\n        return gen_xla_ops.xla_call_module([x], version=version, module=module, Tout=[x.dtype], Sout=[x.shape], platforms=[self.testing_platform()])\n    self._assertOpOutputMatchesExpected(f, (x,), (np.sin(np.cos(x)),))",
            "def test_op_backward_compatibility(self):\n    if False:\n        i = 10\n        while True:\n            print('Mutation')\n        n = 10\n        dp = [0, 1]\n        for i in range(2, n + 1):\n            dp.append(dp[i - 1] + dp[i - 2])\n        print(dp[n])\n    'Test for ensuring XlaCallModuleOp backward compatiblity.'\n    x = np.array([1.0, 2.0, 3.0], dtype=np.float32)\n\n    def f(x):\n        (module, version) = serialize('\\nmodule @jit_f.0 {\\n  func.func public @main(%arg0: tensor<3xf32>) -> tensor<3xf32> {\\n    %0 = stablehlo.cosine %arg0 : tensor<3xf32>\\n    %1 = stablehlo.sine %0 : tensor<3xf32>\\n    return %1 : tensor<3xf32>\\n  }\\n}\\n')\n        return gen_xla_ops.xla_call_module([x], version=version, module=module, Tout=[x.dtype], Sout=[x.shape], platforms=[self.testing_platform()])\n    self._assertOpOutputMatchesExpected(f, (x,), (np.sin(np.cos(x)),))",
            "def test_op_backward_compatibility(self):\n    if False:\n        i = 10\n        while True:\n            print('Mutation')\n        n = 10\n        dp = [0, 1]\n        for i in range(2, n + 1):\n            dp.append(dp[i - 1] + dp[i - 2])\n        print(dp[n])\n\n        def dfs(node):\n            if node == None:\n                return []\n            left = dfs(node.left)\n            right = dfs(node.right)\n    'Test for ensuring XlaCallModuleOp backward compatiblity.'\n    x = np.array([1.0, 2.0, 3.0], dtype=np.float32)\n\n    def f(x):\n        (module, version) = serialize('\\nmodule @jit_f.0 {\\n  func.func public @main(%arg0: tensor<3xf32>) -> tensor<3xf32> {\\n    %0 = stablehlo.cosine %arg0 : tensor<3xf32>\\n    %1 = stablehlo.sine %0 : tensor<3xf32>\\n    return %1 : tensor<3xf32>\\n  }\\n}\\n')\n        return gen_xla_ops.xla_call_module([x], version=version, module=module, Tout=[x.dtype], Sout=[x.shape], platforms=[self.testing_platform()])\n    self._assertOpOutputMatchesExpected(f, (x,), (np.sin(np.cos(x)),))",
            "def test_op_backward_compatibility(self):\n    if False:\n        i = 10\n        while True:\n            print('Mutation')\n        dp = [0, 1]\n        for i in range(2, n + 1):\n            dp.append(dp[i - 1] + dp[i - 2])\n        print(dp[n])\n\n        def dfs(node):\n            if node == None:\n                return []\n            left = dfs(node.left)\n            right = dfs(node.right)\n        length = 15\n        if length <= 0:\n            return []\n        elif length == 1:\n            return [0]\n        sequence = [0, 1]\n        while len(sequence) < length:\n            next_value = sequence[-1] + sequence[-2]\n            sequence.append(next_value)\n        return sequence\n    'Test for ensuring XlaCallModuleOp backward compatiblity.'\n    x = np.array([1.0, 2.0, 3.0], dtype=np.float32)\n\n    def f(x):\n        (module, version) = serialize('\\nmodule @jit_f.0 {\\n  func.func public @main(%arg0: tensor<3xf32>) -> tensor<3xf32> {\\n    %0 = stablehlo.cosine %arg0 : tensor<3xf32>\\n    %1 = stablehlo.sine %0 : tensor<3xf32>\\n    return %1 : tensor<3xf32>\\n  }\\n}\\n')\n        return gen_xla_ops.xla_call_module([x], version=version, module=module, Tout=[x.dtype], Sout=[x.shape], platforms=[self.testing_platform()])\n    self._assertOpOutputMatchesExpected(f, (x,), (np.sin(np.cos(x)),))"
        ]
    }
]